preliminary_experiment/trianed_model/model.pth (torch, 30261 bytes, 8 tensors)

mlp.mlps.0.0.weight f4 [55, 110]
00000000: a6ec 53bc 1dec 4bbd aa9a a73d ebbc b2bc
00000010: 44a8 63bd b538 85bd 07f5 973c a7ed c0bd
00000020: bd0f 523d be14 6f3c d3a4 bc3d c825 82bd
00000030: 95da 893c e851 d53c 87c2 be3c 4f47 123d
00000040: a2ee afbb 5d09 3bbd 4c6e 783d c99d 92bd
00000050: 68a2 d4bc cbad 4a3d 9c25 1ebd deb0 953d
00000060: 4fd3 aebd 982a 433d 0f92 3dbc b915 66bd
00000070: ca06 a33d e52d 68bd 63ae 173d 301b 23bd
00000080: c223 373c e41c 863b 07a0 b33d 5ace 1bbd
00000090: 0bda 103d 6574 cfbb 3194 ef3d 1b91 ecbd
000000a0: 75c9 d4bc 0460 293d 1ae6 603e 92d5 fb3c
000000b0: 534a a43d 3934 ac13 eee8 78bd f0c3 2fbe
000000c0: 72df a8bd 5f34 173d 6865 323d 127d 4b3e
000000d0: 3dd7 b93d 6229 0c3e 60a5 86bc 3c8b afbd
000000e0: b154 0bbd c2a8 453d 7890 9e3c daba 0cbe
000000f0: b37d 723c 4b01 093e c443 8abd 01a4 b33d
00000100: ec8c 61bd db89 8dbd 46c8 0b3e 5d20 c63c
00000110: 7bd4 cebc 5538 b93c 99a3 dc3d 079d e13d
00000120: 852e 8c3e b89d 84bd 91b8 3d3e df99 f4bd
00000130: d139 2b3d c3cc c83b 476b fabc cfd0 60bd
00000140: be00 373d fec1 b7bd 937e 9cbd c583 77be
00000150: 697f 13be 16fe 333e 5a36 90bd 5b82 ca3b
00000160: 7e35 b53d 1568 d6bd 15b3 3fbd fa58 893d
00000170: bd29 be3d 7dd1 6a3d 6f69 4f3e 677b 0c3e
00000180: 043f bebd f750 213d bdd4 6f3d ca48 cabd
00000190: 0dd5 e5bd ca8d be3d 627e 3d3c 98e6 cb3d
000001a0: 499c a43d 8201 9fbd da3e 38bd 7126 08bd
000001b0: 3a0f debd 5959 023e f997 6fbd 45e2 bf3d
000001c0: 5d05 ea3b ec5c 263d 088e d6bc 689e 803b
000001d0: 7596 bebd e8b9 a6bd d775 64bd 644c bd3d
000001e0: 427a d33c e30a 2f3d 9aff bc3d 8c64 3c3d
000001f0: 6c6d 453c 9260 aebc bc45 7dbc 90db 9e3d
00000200: 0b5f 993d 7efa acbd d1ff cb3b 2685 b1bc
00000210: 6f52 953d cfd1 733b bbae 19bd ada0 7ebd
00000220: f91f 40bd 6718 fb3c f63e 70bd 3ef5 403d
00000230: cc16 0ebb 518f ce3c 4235 c23d d7b7 a6bd
00000240: 6bc3 573c f6fe 0cbd bdd6 60ba ace0 423d
00000250: a39b c43d 137d d1bd 0e60 46bd 3216 c03d
00000260: 9606 ef3d 2c77 3ebc 3b4f b73d 5b2e e1bd
00000270: 1a18 bbbc 8378 6bbe 8188 9f3d ca18 ac3c
00000280: 8ff9 e4bd 2ad6 b53c 0630 463d 9ac5 753d
00000290: 6ff2 b33d 06cf 3e3e 2e05 b63b 4552 73be
000002a0: 69cd 1c3d feb2 22be 4142 b3bd af2b 80bd
000002b0: e805 1c3c 4380 fabd ba70 8bbd 085f 113d
000002c0: 0524 d0bd 805f b33c a8b2 1a3e eb83 79bd
000002d0: 7d39 2e3e 631f 3b3e ad90 c13b cf97 c4bd
000002e0: 2adc 453d 2575 623c ccee 7cbd a485 84bd
000002f0: faa5 9e3d d399 65ba d812 82bd 732b 96bd
00000300: 4811 b2bd bc71 123d 806d 05bd f1f7 83be
00000310: 4ad6 113d 0442 86bd 881d 353e cd16 733e
00000320: 3354 f23c a8fa 203d 93de d0bc edd5 2cbd
00000330: 1b91 27bd 46cc 6f3a a203 a53c bef0 ed3c
00000340: 8451 273e 293f 1f3d 1646 c53d 5f00 973d
00000350: 4911 d83d acb7 0e3e a9c3 b93d 061f 4d3e
00000360: 230a 88bd 23b4 00bd 741f 393d 198a 89bd
00000370: f363 c0ba 0996 4dbd 8146 06bd 4597 8e3d
00000380: 4186 65bd 6b81 3f3d 72d1 10bd b337 b73b
00000390: 22a0 aa3d 346f 9cbd 8ebf 81bd 7ef2 933d
000003a0: 9912 f93c acf6 bcbd 0740 3b3d d305 94bd
000003b0: c41b bfbd 8f6b 55bd e4ab 6b3d 0822 863c
000003c0: 04cf 113e 0aa9 293d 9c57 dbbc 062c 8f3d
000003d0: 0815 3a3d 78cd 513d b4f3 65bd e500 8abd
000003e0: af92 7f3d 883f 3f3d d90e ec3b 1989 623d
000003f0: c7b3 f0bd 53a0 08bd f77e 0d3b e35d 263c
-0.012934839 -0.049785722 0.08183797 -0.021818599 -0.055580392 -0.06504957 0.018549455 -0.094203286
0.05128454 0.014592348 0.09211125 -0.063548625 0.01682786 0.026040033 0.023286117 0.035712536
-0.0053690234 -0.045663226 0.060652062 -0.071590014 -0.025956348 0.04948215 -0.038610086 0.07309125
-0.08536398 0.047648042 -0.011570468 -0.05617306 0.07960279 -0.056684393 0.037031543 -0.03982085
0.011177959 0.0040927995 0.08770757 -0.03803859 0.035364192 -0.006331014 0.11698187 -0.11551114
-0.025974968 0.041351333 0.21962777 0.030741487 0.08021989 4.34704e-27 -0.060769014 -0.17164588
-0.08245744 0.03691518 0.04355374 0.1987193 0.090742566 0.13687661 -0.016436279 -0.08571479
-0.034016315 0.048256643 0.019355997 -0.13743153 0.014800477 0.133794 -0.067512065 0.08771516
-0.055066034 -0.069110595 0.13650617 0.024185354 -0.025247803 0.022609869 0.10773391 0.11016279
0.27379242 -0.06475395 0.18527438 -0.11943411 0.041803185 0.006127925 -0.030568732 -0.054886635
0.044678442 -0.08972548 -0.076413296 -0.2417136 -0.14404072 0.17577395 -0.07041617 0.0061800904
0.088480935 -0.10469071 -0.046801645 0.06706424 0.09285305 0.05732869 0.20255063 0.1371895
-0.09289363 0.039383855 0.058552492 -0.09877165 -0.11222277 0.09304388 0.011565777 0.09956092
0.080376215 -0.077639595 -0.044981815 -0.033239786 -0.10842748 0.12729396 -0.05849454 0.09369329
0.0071417526 0.04061596 -0.026190773 0.0039251335 -0.09306041 -0.081409276 -0.055776443 0.09243086
0.025815133 0.04273499 0.0922844 0.045994326 0.012050014 -0.021286283 -0.0154585205 0.07756722
0.07488831 -0.08446215 0.006225564 -0.021669935 0.072911136 0.0037203913 -0.03752015 -0.06216495
-0.04690549 0.030651284 -0.058653794 0.04710888 -0.0021681068 0.025214823 0.09482814 -0.081405334
0.01316915 -0.034422837 -0.00085769204 0.047577545 0.09599998 -0.10228934 -0.04843145 0.093792334
0.11671178 -0.0116250925 0.08950659 -0.1099517 -0.022838641 -0.2299519 0.07789708 0.021007914
-0.11180412 0.022196848 0.048385642 0.0600029 0.08786475 0.1863366 0.0055548167 -0.23761852
0.038281832 -0.15888593 -0.08752871 -0.06258332 0.009522893 -0.12231495 -0.0680861 0.03549102
-0.1016312 0.021896124 0.15107214 -0.060916822 0.17014118 0.18273692 0.0059071393 -0.09599268
0.048305668 0.013821875 -0.061751172 -0.064708024 0.07746501 -0.00087585783 -0.063512504 -0.07332506
-0.086947024 0.035752997 -0.03257513 -0.25775102 0.035604753 -0.0655556 0.17687047 0.23739167
0.029581165 0.039301544 -0.025496757 -0.042196203 -0.040909868 0.00091475656 0.020143334 0.029045459
0.1633969 0.038878594 0.096325085 0.07373118 0.10550172 0.13937253 0.09070522 0.20031366
-0.066425584 -0.03142179 0.04519601 -0.06715793 -0.0014678225 -0.050191913 -0.03278208 0.06962446
-0.056036238 0.046754282 -0.035355993 0.0055913567 0.08331324 -0.07638398 -0.06335364 0.07223986
0.030404376 -0.092267364 0.045715358 -0.072276734 -0.09331468 -0.05210453 0.057536975 0.01637365
0.14239126 0.041420974 -0.026775174 0.06990819 0.045430213 0.05122134 -0.056140617 -0.06738452
0.062395748 0.046691447 0.0072039184 0.055306528 -0.1175304 -0.033356022 0.002159057 0.01015422

mlp.mlps.0.0.bias f4 [55]
00000000: 86b6 57bc 6abb 7e3d eb7d cd3d e183 c23d
00000010: fcdf babb 66e1 50ba d4b4 863c 19fd c43c
00000020: db62 ea3d d914 903d 1ed8 56ba 0f3c fb3c
00000030: 8a05 263d e94f 7fbd c44c 0ebd b357 3fbd
00000040: 60c2 a0bd abf8 913b 59be 1e3d 3983 82bd
00000050: 5f5b 11bd a065 a93d b170 203e 545e e03d
00000060: 0427 2d3d 29a5 103e ac2c 97bd 81d5 a7bd
00000070: 2189 89bb 82ea 3bbb 66b2 31bd aed5 7f3d
00000080: 3034 86ab 996c 543c f3e2 b4bd 7755 c13d
00000090: 7bb1 83bb 2665 cf3d c3ee 59bd b92f bd3c
000000a0: 408c 4f3d bd45 173e 374c c13d c0cf 5f3d
000000b0: ed85 1e3c 95ac aa3a 49b2 9f3d a33a 8a3d
000000c0: b2d3 c23d ec40 373d b5a5 a1bd 8284 813c
000000d0: 28f2 5bba 1ac8 89bd 250c 4fbb
-0.013166076 0.06219045 0.100337826 0.0949781 -0.0057029705 -0.00079681573 0.016443647 0.024046468
0.114446364 0.070352264 -0.0008195656 0.030668287 0.040532626 -0.062332068 -0.03474118 -0.046714496
-0.07849574 0.0044546924 0.03875575 -0.06372685 -0.03548753 0.082713366 0.15667988 0.10955492
0.042273536 0.14125504 -0.07381567 -0.081950195 -0.0041972552 -0.0028673713 -0.043383025 0.06245964
-9.535758e-13 0.012965345 -0.0883235 0.09440129 -0.00401896 0.101267144 -0.053206217 0.023094045
0.050670862 0.14772697 0.09438365 0.054641485 0.009675485 0.0013021404 0.07797677 0.06749465
0.09513034 0.04473965 -0.07892934 0.015810255 -0.0008390271 -0.067276195 -0.0031592932

mlp.mlps.1.0.weight f4 [5, 55]
00000000: 9cff 2cbe 2587 833d 2a8b e5bc 101c d23d
00000010: 52eb 3dbe de77 70be d3c4 a0bc dab1 00be
00000020: 4c76 3a3e a891 fc3d b9c4 f725 93c6 bc3d
00000030: af2f 12be 829b 6fbe 9d37 f9bd a7c9 3fbe
00000040: 5024 943d 8913 643e bf95 b4bd 0097 64be
00000050: 2879 4b3e 1ffb 863e d839 9f3e ef34 ab3e
00000060: caef 94bd 745d 0d3e 575d d3bd 2a07 08bc
00000070: 10f2 b1b9 b0ab 769e 425b 89bd c457 713e
00000080: 794d d729 f28f 07bd 7d26 043e 1933 593e
00000090: 1512 133d bc12 f8be 4d80 8abd 6643 f8bd
000000a0: 95d2 3b3e dcd6 863e 1183 8dbe 0297 233e
000000b0: c63b c63c ad2a 2b3d c839 913e 5b9d 2abd
000000c0: 6d00 80be 9892 d63c 385e 413e 1e5e 533e
000000d0: ff42 f1a1 3152 b83d 9aea 1bba 9b8f cfbd
000000e0: 8285 41be c9f7 873e bdcf d23d f656 f6bb
000000f0: dbf6 a93c 4388 923c 97b0 223d 71bc b93d
00000100: 43f6 133e abf4 6aab 96aa a5bd 30e9 1bbe
00000110: 12c3 103e 335f 9d3d 2834 f9bd 8e6e dabc
00000120: f20c 5a3e f4c4 1e3d dab0 21be 4490 8bbd
00000130: 9ffa 1ebd 533b e4bd 7e35 e0bd 43aa af3d
00000140: da78 cb3d a6ac 753d 4092 16be d0d4 0c3b
00000150: 34ef de9d 270e 243e ccec ea3d faf8 862b
00000160: e924 9c3d b361 893d 1265 943d fec3 213e
00000170: 2d9c 0e3e 1d9a 1c3e 9b7c 62be 4670 ab3d
00000180: eafe 20bd 9474 b33c aa2e d73d 04ab c3be
00000190: 4d67 793e 5025 3fbd f32e 523d 1145 29be
000001a0: a57d 50bd 3ce0 c1bd 98ce 4f3e 32d1 1a97
000001b0: de70 813e eb6a 76ba 26ea 883e a7dd d33c
000001c0: adce dbbc 0762 ff3d 137d a73d 12ed 72be
000001d0: cbe1 253d 11e5 65be bd83 213e cd0e 5cbe
000001e0: 9a15 dc93 e300 a13d dd34 ce3d c224 15be
000001f0: 8c05 fe3d 3aa2 033e 6cde 083e 2df1 c0be
00000200: 4068 cbbd fda3 cd3c a154 653e 2326 cf3c
00000210: 7107 8dbe 35c4 89bd de8c 693d 818b 943e
00000220: 41a2 8c3d 3b22 af3d 7b94 8bbb f0ab 8eab
00000230: 6094 5a3b 4239 37be f5af 0aae a113 433e
00000240: a073 8ebe 523a acbd c3f7 823d 6653 263d
00000250: 8a8c 353e 057c 883e 931d f2bd af57 143e
00000260: 5e3c 773d 1afa 293e a667 ce3e 4835 6dbe
00000270: 5de2 ddbe a6fa 363e 9411 bb3e 6364 3a3e
00000280: 6b9a 0ebe a57d 63be dfbb 0f2f 4737 afbe
00000290: 3caf 333b 7df5 6abd bf23 9d3c 92f6 f9bd
000002a0: eb10 573d 1f4a 543e fe9f d13d 9427 bb27
000002b0: a512 303e e04a 16be f717 013b 71f9 48a3
000002c0: 4e49 abbd abb4 bd3d d6ec 263e 62f8 023e
000002d0: b077 0e3e 9a33 e73c b7dc 9ebd bc71 9990
000002e0: 510f 323e a5d9 3a3d a4f4 e5bd 0e97 363d
000002f0: cdb8 6a3c 7964 2bbc f5f9 3abe 5d47 9abc
00000300: 6885 b03d 56e9 41bb b9f1 90a7 898c 03bc
00000310: fff2 00be d6db 94ad a6eb 82bd 69a0 8abc
00000320: 16ca 21be 4785 0cbd 05fc 393e 90f0 013d
00000330: 36f9 b63d 40b8 b8bd a1ea 1abe 4cec 573e
00000340: a626 f3bd ab6c a6bd fe5e 16be 1973 263d
00000350: 276d abbd 8db0 c73d bdd5 d0bd 7f64 213e
00000360: 4723 73bd 1312 641d 5d02 593c 8d0f 8d3b
00000370: 5c13 4bbc ec9e c93c 915e 00be 6ac8 0a3d
00000380: 652d 54bc 47dd 22be 490d c2bc d239 81bd
00000390: a4ff 95bd 1fb1 5db9 e5d7 271e 79e0 0dbe
000003a0: f16f 2d3e 7fa8 fb3d 38b5 e4bc bb0e c33d
000003b0: c690 8bbd c59e 1ebe 5303 9f84 4c5a cebd
000003c0: 98e8 4ebe c6d3 4abd 87b0 4c3d 5f54 afbd
000003d0: 3788 c694 1e59 31be 0d26 32bd b53b 503d
000003e0: 9e93 b33a 0ffa 3d96 e0b3 ec3c 51d6 da3d
000003f0: 20d1 ee2d e980 c33b f74d a9bd 5601 2abe
-0.16894382 0.06422261 -0.02802046 0.10259259 -0.18546799 -0.23483226 -0.019625103 -0.12567845
0.18209189 0.12332469 4.2980974e-16 0.092175625 -0.14276002 -0.23399165 -0.121688105 -0.18729268
0.072334886 0.22273077 -0.08817624 -0.22323227 0.19870436 0.26363465 0.3109882 0.33438823
-0.07272299 0.13805181 -0.103205375 -0.008302489 -0.0003394042 -1.3058636e-20 -0.06706859 0.23568636
9.5613574e-14 -0.03309626 0.12905307 0.21210898 0.035905916 -0.48451793 -0.06762753 -0.1212223
0.1834205 0.263358 -0.27639058 0.15975574 0.024198424 0.041788746 0.28364396 -0.041653972
-0.25000325 0.026192948 0.18883598 0.20641372 -1.6348529e-18 0.09000052 -0.0005947739 -0.101348124
-0.18898585 0.26556233 0.10293529 -0.007517691 0.020747593 0.01788724 0.03971919 0.090691455
0.1444941 -8.3473045e-13 -0.08089177 -0.15225673 0.14136913 0.076841734 -0.12168151 -0.026664045
0.21294 0.038762048 -0.1579012 -0.06814626 -0.03881323 -0.11144128 -0.10947703 0.08577397
0.0993516 0.059979104 -0.14704227 0.002148915 -5.901024e-21 0.16021024 0.11470947 9.590378e-13
0.076242276 0.06708088 0.0724584 0.15797421 0.13926764 0.15293165 -0.22117846 0.08371024
-0.039305605 0.021906175 0.10506947 -0.38216412 0.24355812 -0.046666443 0.051314306 -0.16530253
-0.050901074 -0.094665974 0.20293653 -5.0024125e-25 0.25281423 -0.00094000873 0.2674114 0.025862528
-0.02683195 0.12469869 0.08178153 -0.23723248 0.040498536 -0.22450663 0.1577291 -0.21490021
-5.555711e-27 0.07861497 0.100686766 -0.14564803 0.12403402 0.12854853 0.13366097 -0.37684003
-0.099319935 0.02510261 0.22395565 0.02528674 -0.2754474 -0.06726877 0.057019107 0.29012683
0.06866885 0.08551451 -0.0042596436 -1.0137429e-12 0.0033352599 -0.17892936 -3.153385e-11 0.19050457
-0.2782259 -0.08409561 0.06394913 0.04060688 0.17729393 0.2665712 -0.11822047 0.14486574
0.060360305 0.16599312 0.40313452 -0.23164856 -0.43336764 0.17869052 0.3653685 0.18202357
-0.13926093 -0.22215898 1.307252e-10 -0.3422186 0.002741768 -0.057363022 0.019182084 -0.12205233
0.05250637 0.207314 0.10235594 5.1945837e-15 0.17194612 -0.14677 0.0019698122 -1.0894843e-17
-0.08363591 0.09262975 0.16301283 0.12790063 0.13912845 0.028222848 -0.07756942 -6.0523095e-29
0.17388655 0.04561772 -0.11228302 0.04457765 0.0143262865 -0.010460966 -0.18259414 -0.018832857
0.08619195 -0.0029588542 -4.0230105e-15 -0.008029112 -0.12592696 -1.6923279e-11 -0.063926026 -0.016922193
-0.15799746 -0.03430679 0.18162544 0.03172356 0.08934252 -0.09019518 -0.15128566 0.21086234
-0.11872606 -0.081261955 -0.14684674 0.04063711 -0.083704285 0.09750471 -0.10197017 0.15760992
-0.059359815 3.0184893e-21 0.013245192 0.0043048323 -0.012394752 0.024611913 -0.12536074 0.033882536
-0.012950276 -0.15904723 -0.023687975 -0.063098565 -0.0732415 -0.00021142185 8.885552e-21 -0.13855161
0.16937234 0.122879975 -0.027918443 0.09524294 -0.06814723 -0.15490253 -3.7383773e-36 -0.100758165
-0.20205915 -0.04951837 0.049973037 -0.085610144 -2.0046618e-26 -0.17319152 -0.04349332 0.05083819
0.001370061 -1.5346203e-25 0.028894365 0.10685409 2.7150338e-11 0.005966295 -0.08266824 -0.16602072

mlp.mlps.1.0.bias f4 [5]
00000000: 11df 973d 3b8f de3d c65d ccb9 16af 3d3d
00000010: 33a5 b4bc
0.074155934 0.10867163 -0.0003897978 0.046309553 -0.02205143

BN.weight f4 [110]
00000000: 0000 803f 0000 803f 0000 803f 0000 803f
00000010: 0000 803f 0000 803f 0000 803f 0000 803f
00000020: 0000 803f 0000 803f 0000 803f 0000 803f
00000030: 0000 803f 0000 803f 0000 803f 0000 803f
00000040: 0000 803f 0000 803f 0000 803f 0000 803f
00000050: 0000 803f 0000 803f 0000 803f 0000 803f
00000060: 0000 803f 0000 803f 0000 803f 0000 803f
00000070: 0000 803f 0000 803f 0000 803f 0000 803f
00000080: 0000 803f 0000 803f 0000 803f 0000 803f
00000090: 0000 803f 0000 803f 0000 803f 0000 803f
000000a0: 0000 803f 0000 803f 0000 803f 0000 803f
000000b0: 0000 803f 0000 803f 0000 803f 0000 803f
000000c0: 0000 803f 0000 803f 0000 803f 0000 803f
000000d0: 0000 803f 0000 803f 0000 803f 0000 803f
000000e0: 0000 803f 0000 803f 0000 803f 0000 803f
000000f0: 0000 803f 0000 803f 0000 803f 0000 803f
00000100: 0000 803f 0000 803f 0000 803f 0000 803f
00000110: 0000 803f 0000 803f 0000 803f 0000 803f
00000120: 0000 803f 0000 803f 0000 803f 0000 803f
00000130: 0000 803f 0000 803f 0000 803f 0000 803f
00000140: 0000 803f 0000 803f 0000 803f 0000 803f
00000150: 0000 803f 0000 803f 0000 803f 0000 803f
00000160: 0000 803f 0000 803f 0000 803f 0000 803f
00000170: 0000 803f 0000 803f 0000 803f 0000 803f
00000180: 0000 803f 0000 803f 0000 803f 0000 803f
00000190: 0000 803f 0000 803f 0000 803f 0000 803f
000001a0: 0000 803f 0000 803f 0000 803f 0000 803f
000001b0: 0000 803f 0000 803f
1.0 1.0 1.0 1.0 1.0 1.0 1.0 1.0
1.0 1.0 1.0 1.0 1.0 1.0 1.0 1.0
1.0 1.0 1.0 1.0 1.0 1.0 1.0 1.0
1.0 1.0 1.0 1.0 1.0 1.0 1.0 1.0
1.0 1.0 1.0 1.0 1.0 1.0 1.0 1.0
1.0 1.0 1.0 1.0 1.0 1.0 1.0 1.0
1.0 1.0 1.0 1.0 1.0 1.0 1.0 1.0
1.0 1.0 1.0 1.0 1.0 1.0 1.0 1.0
1.0 1.0 1.0 1.0 1.0 1.0 1.0 1.0
1.0 1.0 1.0 1.0 1.0 1.0 1.0 1.0
1.0 1.0 1.0 1.0 1.0 1.0 1.0 1.0
1.0 1.0 1.0 1.0 1.0 1.0 1.0 1.0
1.0 1.0 1.0 1.0 1.0 1.0 1.0 1.0
1.0 1.0 1.0 1.0 1.0 1.0

BN.bias f4 [110]
00000000: 0000 0000 0000 0000 0000 0000 0000 0000
00000010: 0000 0000 0000 0000 0000 0000 0000 0000
00000020: 0000 0000 0000 0000 0000 0000 0000 0000
00000030: 0000 0000 0000 0000 0000 0000 0000 0000
00000040: 0000 0000 0000 0000 0000 0000 0000 0000
00000050: 0000 0000 0000 0000 0000 0000 0000 0000
00000060: 0000 0000 0000 0000 0000 0000 0000 0000
00000070: 0000 0000 0000 0000 0000 0000 0000 0000
00000080: 0000 0000 0000 0000 0000 0000 0000 0000
00000090: 0000 0000 0000 0000 0000 0000 0000 0000
000000a0: 0000 0000 0000 0000 0000 0000 0000 0000
000000b0: 0000 0000 0000 0000 0000 0000 0000 0000
000000c0: 0000 0000 0000 0000 0000 0000 0000 0000
000000d0: 0000 0000 0000 0000 0000 0000 0000 0000
000000e0: 0000 0000 0000 0000 0000 0000 0000 0000
000000f0: 0000 0000 0000 0000 0000 0000 0000 0000
00000100: 0000 0000 0000 0000 0000 0000 0000 0000
00000110: 0000 0000 0000 0000 0000 0000 0000 0000
00000120: 0000 0000 0000 0000 0000 0000 0000 0000
00000130: 0000 0000 0000 0000 0000 0000 0000 0000
00000140: 0000 0000 0000 0000 0000 0000 0000 0000
00000150: 0000 0000 0000 0000 0000 0000 0000 0000
00000160: 0000 0000 0000 0000 0000 0000 0000 0000
00000170: 0000 0000 0000 0000 0000 0000 0000 0000
00000180: 0000 0000 0000 0000 0000 0000 0000 0000
00000190: 0000 0000 0000 0000 0000 0000 0000 0000
000001a0: 0000 0000 0000 0000 0000 0000 0000 0000
000001b0: 0000 0000 0000 0000
0.0 0.0 0.0 0.0 0.0 0.0 0.0 0.0
0.0 0.0 0.0 0.0 0.0 0.0 0.0 0.0
0.0 0.0 0.0 0.0 0.0 0.0 0.0 0.0
0.0 0.0 0.0 0.0 0.0 0.0 0.0 0.0
0.0 0.0 0.0 0.0 0.0 0.0 0.0 0.0
0.0 0.0 0.0 0.0 0.0 0.0 0.0 0.0
0.0 0.0 0.0 0.0 0.0 0.0 0.0 0.0
0.0 0.0 0.0 0.0 0.0 0.0 0.0 0.0
0.0 0.0 0.0 0.0 0.0 0.0 0.0 0.0
0.0 0.0 0.0 0.0 0.0 0.0 0.0 0.0
0.0 0.0 0.0 0.0 0.0 0.0 0.0 0.0
0.0 0.0 0.0 0.0 0.0 0.0 0.0 0.0
0.0 0.0 0.0 0.0 0.0 0.0 0.0 0.0
0.0 0.0 0.0 0.0 0.0 0.0

BN.running_mean f4 [110]
00000000: 0000 0000 0000 0000 0000 0000 0000 0000
00000010: 0000 0000 0000 0000 0000 0000 0000 0000
00000020: 0000 0000 0000 0000 0000 0000 0000 0000
00000030: 0000 0000 0000 0000 0000 0000 0000 0000
00000040: 0000 0000 0000 0000 0000 0000 0000 0000
00000050: 0000 0000 0000 0000 0000 0000 0000 0000
00000060: 0000 0000 0000 0000 0000 0000 0000 0000
00000070: 0000 0000 0000 0000 0000 0000 0000 0000
00000080: 0000 0000 0000 0000 0000 0000 0000 0000
00000090: 0000 0000 0000 0000 0000 0000 0000 0000
000000a0: 0000 0000 0000 0000 0000 0000 0000 0000
000000b0: 0000 0000 0000 0000 0000 0000 0000 0000
000000c0: 0000 0000 0000 0000 0000 0000 0000 0000
000000d0: 0000 0000 0000 0000 0000 0000 0000 0000
000000e0: 0000 0000 0000 0000 0000 0000 0000 0000
000000f0: 0000 0000 0000 0000 0000 0000 0000 0000
00000100: 0000 0000 0000 0000 0000 0000 0000 0000
00000110: 0000 0000 0000 0000 0000 0000 0000 0000
00000120: 0000 0000 0000 0000 0000 0000 0000 0000
00000130: 0000 0000 0000 0000 0000 0000 0000 0000
00000140: 0000 0000 0000 0000 0000 0000 0000 0000
00000150: 0000 0000 0000 0000 0000 0000 0000 0000
00000160: 0000 0000 0000 0000 0000 0000 0000 0000
00000170: 0000 0000 0000 0000 0000 0000 0000 0000
00000180: 0000 0000 0000 0000 0000 0000 0000 0000
00000190: 0000 0000 0000 0000 0000 0000 0000 0000
000001a0: 0000 0000 0000 0000 0000 0000 0000 0000
000001b0: 0000 0000 0000 0000
0.0 0.0 0.0 0.0 0.0 0.0 0.0 0.0
0.0 0.0 0.0 0.0 0.0 0.0 0.0 0.0
0.0 0.0 0.0 0.0 0.0 0.0 0.0 0.0
0.0 0.0 0.0 0.0 0.0 0.0 0.0 0.0
0.0 0.0 0.0 0.0 0.0 0.0 0.0 0.0
0.0 0.0 0.0 0.0 0.0 0.0 0.0 0.0
0.0 0.0 0.0 0.0 0.0 0.0 0.0 0.0
0.0 0.0 0.0 0.0 0.0 0.0 0.0 0.0
0.0 0.0 0.0 0.0 0.0 0.0 0.0 0.0
0.0 0.0 0.0 0.0 0.0 0.0 0.0 0.0
0.0 0.0 0.0 0.0 0.0 0.0 0.0 0.0
0.0 0.0 0.0 0.0 0.0 0.0 0.0 0.0
0.0 0.0 0.0 0.0 0.0 0.0 0.0 0.0
0.0 0.0 0.0 0.0 0.0 0.0

BN.running_var f4 [110]
00000000: 0000 803f 0000 803f 0000 803f 0000 803f
00000010: 0000 803f 0000 803f 0000 803f 0000 803f
00000020: 0000 803f 0000 803f 0000 803f 0000 803f
00000030: 0000 803f 0000 803f 0000 803f 0000 803f
00000040: 0000 803f 0000 803f 0000 803f 0000 803f
00000050: 0000 803f 0000 803f 0000 803f 0000 803f
00000060: 0000 803f 0000 803f 0000 803f 0000 803f
00000070: 0000 803f 0000 803f 0000 803f 0000 803f
00000080: 0000 803f 0000 803f 0000 803f 0000 803f
00000090: 0000 803f 0000 803f 0000 803f 0000 803f
000000a0: 0000 803f 0000 803f 0000 803f 0000 803f
000000b0: 0000 803f 0000 803f 0000 803f 0000 803f
000000c0: 0000 803f 0000 803f 0000 803f 0000 803f
000000d0: 0000 803f 0000 803f 0000 803f 0000 803f
000000e0: 0000 803f 0000 803f 0000 803f 0000 803f
000000f0: 0000 803f 0000 803f 0000 803f 0000 803f
00000100: 0000 803f 0000 803f 0000 803f 0000 803f
00000110: 0000 803f 0000 803f 0000 803f 0000 803f
00000120: 0000 803f 0000 803f 0000 803f 0000 803f
00000130: 0000 803f 0000 803f 0000 803f 0000 803f
00000140: 0000 803f 0000 803f 0000 803f 0000 803f
00000150: 0000 803f 0000 803f 0000 803f 0000 803f
00000160: 0000 803f 0000 803f 0000 803f 0000 803f
00000170: 0000 803f 0000 803f 0000 803f 0000 803f
00000180: 0000 803f 0000 803f 0000 803f 0000 803f
00000190: 0000 803f 0000 803f 0000 803f 0000 803f
000001a0: 0000 803f 0000 803f 0000 803f 0000 803f
000001b0: 0000 803f 0000 803f
1.0 1.0 1.0 1.0 1.0 1.0 1.0 1.0
1.0 1.0 1.0 1.0 1.0 1.0 1.0 1.0
1.0 1.0 1.0 1.0 1.0 1.0 1.0 1.0
1.0 1.0 1.0 1.0 1.0 1.0 1.0 1.0
1.0 1.0 1.0 1.0 1.0 1.0 1.0 1.0
1.0 1.0 1.0 1.0 1.0 1.0 1.0 1.0
1.0 1.0 1.0 1.0 1.0 1.0 1.0 1.0
1.0 1.0 1.0 1.0 1.0 1.0 1.0 1.0
1.0 1.0 1.0 1.0 1.0 1.0 1.0 1.0
1.0 1.0 1.0 1.0 1.0 1.0 1.0 1.0
1.0 1.0 1.0 1.0 1.0 1.0 1.0 1.0
1.0 1.0 1.0 1.0 1.0 1.0 1.0 1.0
1.0 1.0 1.0 1.0 1.0 1.0 1.0 1.0
1.0 1.0 1.0 1.0 1.0 1.0
