auto_select/model.pth (torch, 9525 bytes, 8 tensors)

mlp.mlps.0.0.weight f4 [25, 50]
0	0xbd8f42b1	-0.06995142
1	0xbe2f62a4	-0.17127472
2	0x3e0bf8de	0.13669154
3	0xbcc671c0	-0.024224162
4	0xbdfdece7	-0.12398701
5	0xbddf2363	-0.10895421
6	0x3de27e26	0.11059217
7	0xbe10966a	-0.14119878
8	0x3e0d112f	0.13776086
9	0xbd3f0f5b	-0.046645503
10	0x3e0183aa	0.12647882
11	0xbdbc812a	-0.092043236
12	0x14f8865a	2.5094593e-26
13	0xbb7b79c8	-0.0038372148
14	0xbd15d1c6	-0.03657701
15	0x3d1f0e17	0.038831796
16	0xbda07044	-0.07833913
17	0xbdfc0abb	-0.12306734
18	0x3c1e98b2	0.00967996
19	0xbe27907b	-0.16363709
20	0xbe401de4	-0.18761402
21	0x3dfbc733	0.122938536
22	0xbd99184d	-0.07475338
23	0x3e1bebe8	0.1522671
24	0xbda56047	-0.08075004
25	0x3d0debb2	0.034648605
26	0x3c8f029e	0.017457303
27	0xbdab3e2a	-0.08361466
28	0x3dd06ab1	0.101766
29	0xbd9b2dcb	-0.07577094
30	0xbd3ec3c0	-0.0465734
31	0xbd7e53c0	-0.06209159
32	0x3d44c87a	0.04804275
33	0x3d7b9638	0.061422557
34	0x3dd5c3e0	0.10437751
35	0xbd86426d	-0.065556385
36	0x3d9d85a9	0.07691509
37	0xbd2068b4	-0.039162353
38	0x3e2305ac	0.15920132
39	0xbde6887d	-0.11256502
40	0xbd2a66de	-0.041602008
41	0x3de77549	0.11301667
42	0x3b70f2c9	0.0036765805
43	0xbd866e3f	-0.065639965
44	0xbd3989ba	-0.045297362
45	0xbceb3e0d	-0.028716112
46	0xbd87a543	-0.06623318
47	0xbdc80980	-0.09767437
48	0xbe02d559	-0.12776698
49	0x3cb2e985	0.021839866
50	0x3d5878ec	0.052849695
51	0x3db492b4	0.08817044
52	0xbe1f5947	-0.155614
53	0x3d76c718	0.060248464
54	0x3e03e041	0.12878515
55	0x3e87c7cc	0.2651962
56	0x3d145df8	0.036222428
57	0xbdbcec53	-0.09224763
58	0xbe2a6299	-0.16639175
59	0xbe1025b3	-0.14076881
60	0xbd432fce	-0.047653012
61	0x3e2fc70c	0.17165774
62	0xbd9a782e	-0.07542454
63	0x3e2e91eb	0.17047851
64	0x3dc95767	0.09831124
65	0xbd1a0d62	-0.03761042
66	0x3da3c198	0.079959095
67	0x3e0e16d9	0.13875903
68	0xbcaf9380	-0.021432638
69	0x3e49bb5b	0.19700377
70	0x3e8e2764	0.27764428
71	0x3e2d372e	0.1691558
72	0x3e01b137	0.12665258
73	0xbc07e842	-0.008295121
74	0x3ab6aa9f	0.0013936347
75	0xbbf5eeb3	-0.007505262
76	0x3c624794	0.013811011
77	0xbd7d2a19	-0.061807726
78	0xbe08642c	-0.13319463
79	0xbe2e0b37	-0.16996466
80	0x3ce98934	0.028507806
81	0xbdeddbc5	-0.11614183
82	0x3cb209a0	0.021733105
83	0xbddaad12	-0.10677542
84	0xbd30672a	-0.043067135
85	0x3db546b7	0.088513784
86	0xbe2bc7c7	-0.16775428
87	0x3cf7954f	0.030222563
88	0x3dbb51ad	0.09146438
89	0xbcc0048b	-0.023439666
90	0x3d87e830	0.06636083
91	0xbbafadfc	-0.0053613167
92	0xbd9f2baf	-0.07772004
93	0xbda6a1cb	-0.08136328
94	0x3d36dd51	0.044644658
95	0x3e485897	0.19565044
96	0xbae7caef	-0.001768438
97	0x3e011718	0.12606466
98	0x3df7559c	0.120768756
99	0xbe2b0f4d	-0.16705056
100	0xbdba35f1	-0.0909232
101	0x3d9e6c43	0.07735493
102	0x3e1bef83	0.15228085
103	0x3e0786bb	0.1323499
104	0xbd8fef9c	-0.07028124
105	0xbe4bdf6a	-0.19909444
106	0xbe2ec233	-0.17066269
107	0x3ccce218	0.025010154
108	0xbd99d9b8	-0.0751223
109	0x3dae9f70	0.08526504
110	0xbdf2d1b5	-0.11856405
111	0x3ce74a72	0.02823374
112	0xbd183bc9	-0.03716639
113	0xbbf5a312	-0.007496246
114	0xbd038345	-0.03210761
115	0xbd0eae4b	-0.034834187
116	0xbdccb005	-0.099945106
117	0xbe5755a5	-0.21028765
118	0xbda1aee9	-0.078946896
119	0xbcfe669d	-0.03105479
120	0xbe096a77	-0.1341952
121	0x3b8f444f	0.0043721567
122	0x3e090296	0.13379893
123	0x3da22948	0.0791803
124	0x3d055904	0.032555595
125	0xbda3dc9a	-0.08001061
126	0xbd1d2706	-0.038367294
127	0x3da922a9	0.08258564
128	0x3e0f36f4	0.13985807
129	0xbd31df06	-0.043425582
130	0x3e24b305	0.16083916
131	0x3cf1c878	0.029514536
132	0x3dd27d11	0.10277761
133	0xbd73e3df	-0.059543487
134	0xbca4cd83	-0.020117527
135	0x3c1b3e0b	0.009475241
136	0x3c998d0b	0.018744012
137	0x3e0fab02	0.14030078
138	0x3b372408	0.002794506
139	0xbd4bb429	-0.04973236
140	0xbd7adcff	-0.061245915
141	0x3e1438e2	0.14474824
142	0x3e11759c	0.1420502
143	0xbd010ace	-0.031504445
144	0x3c221cac	0.009894531
145	0xbda79087	-0.08181863
146	0xbd0e8f95	-0.0348049
147	0x3cd0f01f	0.025505124
148	0xbb660332	-0.003509712
149	0xbcb49ec7	-0.022048367
150	0xa9ac0699	-7.639479e-14
151	0x354f2ec1	7.7181545e-07
152	0x1d75e796	3.2545207e-21
153	0xa5510122	-1.8128244e-16
154	0x31b1ee54	5.1784728e-09
155	0x9b8d5517	-2.3381481e-22
156	0xa8a2d908	-1.8079735e-14
157	0xb4840063	-2.4587197e-07
158	0x310696d6	1.9585307e-09
159	0xbd2f17f5	-0.042747457
160	0xb06258c8	-8.2344487e-10
161	0xb17dc1c2	-3.6926484e-09
162	0xbdddb965	-0.10826377
163	0x2623435a	5.6643264e-16
164	0x2752626e	2.9196713e-15
165	0x1fc022e6	8.13729e-20
166	0xb00c0472	-5.093802e-10
167	0xb4be3a87	-3.5432842e-07
168	0xaed3426d	-9.606969e-11
169	0xb0b2f10a	-1.3019712e-09
170	0x215523ae	7.221443e-19
171	0x28ab1171	1.8992378e-14
172	0xa8f5ad98	-2.7275748e-14
173	0xb4d0c0a7	-3.8883192e-07
174	0x30853bc6	9.694012e-10
175	0x2aaf65a1	3.1156764e-13
176	0xa9ba847d	-8.2830424e-14
177	0xa8bc3052	-2.0893148e-14
178	0x93b06f53	-4.453842e-27
179	0xaaf37888	-4.3249107e-13
180	0x3d81f2aa	0.063451126
181	0x1f802de2	5.4286015e-20
182	0xaf61461e	-2.0488541e-10
183	0xb3afb040	-8.181132e-08
184	0xa970a9cc	-5.343798e-14
185	0xb3300ef4	-4.0991793e-08
186	0xa03fac8d	-1.6235422e-19
187	0xa13fba4c	-6.495988e-19
188	0xaabb3e85	-3.3261255e-13
189	0x1c95ea40	9.920545e-22
190	0xab4e18ba	-7.3220217e-13
191	0x2eb63349	8.285512e-11
192	0x3d902295	0.07037846
193	0xa436e82b	-3.9661613e-17
194	0xaa657101	-2.0378492e-13
195	0xb509e90d	-5.137561e-07
196	0x93835ec5	-3.31625e-27
197	0xb32f595b	-4.082663e-08
198	0x3de19e7a	0.11016555
199	0x3d70a718	0.058753103
200	0xbd3b3bd3	-0.04571135
201	0xbd06a8b3	-0.032875728
202	0x3d47894c	0.04871492
203	0x3e56ebb8	0.20988357
204	0xbda0f99f	-0.078601114
205	0xbe417189	-0.18890966
206	0x3d3b0a88	0.04566434
207	0x3e28e41d	0.16493268
208	0x3ddf779f	0.10911488
209	0x3e33bdb0	0.17552829
210	0xbcbfdaeb	-0.023419818
211	0xbc20cef7	-0.009814969
212	0xbe25c6cc	-0.16189116
213	0x3ca58737	0.020206077
214	0x3dc8b83d	0.09800766
215	0xbce5bf53	-0.028045332
216	0xbd4fc0e2	-0.050721057
217	0xbdc4a9e1	-0.09602714
218	0x3d361176	0.044450246
219	0xbe540d1b	-0.20708124
220	0xbe935ac3	-0.28780183
221	0xbda63291	-0.081151135
222	0xbc14ed4c	-0.009089779
223	0x3e26162c	0.16219395
224	0xbd732329	-0.059359703
225	0x3e0d5326	0.1380125
226	0xbd42af89	-0.047530685
227	0x3d661fa6	0.056182526
228	0x3e45461c	0.19265026
229	0xbdcec39e	-0.10095905
230	0xbcbd7d61	-0.023131074
231	0x3e0bf997	0.1366943
232	0x3d8cd999	0.06877441
233	0xbd7a38af	-0.061089214
234	0x3d9cd9d9	0.07658739
235	0xbdd68523	-0.104746126
236	0xbd412bf4	-0.047161058
237	0xbd16671d	-0.03671943
238	0x3d99fa04	0.0751839
239	0xbdfa1d07	-0.12212568
240	0x3dcdc1b6	0.10046713
241	0x3e0316d1	0.12801673
242	0x3dc7eadd	0.097615935
243	0x3e57c7ee	0.21072361
244	0x3e26800a	0.1625978
245	0x3bed08e7	0.0072337273
246	0xbd9edd16	-0.077570125
247	0xbe47aa84	-0.1949864
248	0xbd6355e2	-0.055501826
249	0x3e7a159f	0.2442231
250	0x3cb0a033	0.021560764
251	0x3d855485	0.065102614
252	0xbe17c291	-0.14820315
253	0xbc050486	-0.008118754
254	0x3d43d46a	0.047809996
255	0xbd487e1a	-0.048948385

mlp.mlps.0.0.bias f4 [25]
0	0xbdd4af88	-0.103850424
1	0x3dcacd1c	0.09902403
2	0x3db901ba	0.090335324
3	0xbdbad03f	-0.09121751
4	0x3e0f4060	0.13989401
5	0x3b0e2f16	0.0021695546
6	0x3d61b3ea	0.05510322
7	0x3dee88c0	0.11647177
8	0x3dae3b1b	0.08507367
9	0x3d28a398	0.04117164
10	0x3c1239cc	0.008924913
11	0x3d9497b5	0.07255498
12	0x3e2911ab	0.16510646
13	0x3b94fa07	0.004546407
14	0xbd45c7f9	-0.048286412
15	0xbb927a3e	-0.004470139
16	0x3e000ea7	0.1250559
17	0x3d925db4	0.07146779
18	0xbd783ea0	-0.0606066
19	0x3bc3094e	0.005952037
20	0x3e0b7505	0.13618858
21	0x3c132a99	0.008982324
22	0x3db2ac5f	0.087242834
23	0x3dd2f3be	0.103003964
24	0x3e01f4c4	0.12691027

mlp.mlps.1.0.weight f4 [5, 25]
0	0xbd2bd29d	-0.041948903
1	0xbe877509	-0.26456478
2	0x3e34a422	0.17640737
3	0x3d1b1307	0.037859943
4	0x3ea50909	0.32233456
5	0xbe07843b	-0.13234036
6	0xbe2f7fca	-0.17138591
7	0x3cd398ae	0.02582964
8	0x3e289ea7	0.16466771
9	0x3dc7e79c	0.09760973
10	0xbb0009c7	-0.0019537078
11	0xbe91e425	-0.28494373
12	0x3e56a94e	0.20963022
13	0x3e97f5c9	0.29679707
14	0xbeb37bab	-0.3505529
15	0xbe6b0c0a	-0.22953811
16	0x3de1cdd4	0.11025587
17	0xbe5bf3bb	-0.21479695
18	0xbe59c183	-0.21265225
19	0x3e2e2e30	0.17009807
20	0x3e169cae	0.14708206
21	0x3e8e5e72	0.2780643
22	0xbe86ed50	-0.2635293
23	0xbc5d830f	-0.013520016
24	0xbd933004	-0.07186893
25	0xa8bf477e	-2.1236265e-14
26	0xbb46bbc0	-0.003032431
27	0x36cf6324	6.180622e-06
28	0xab3d1232	-6.717154e-13
29	0x30744c07	8.8874724e-10
30	0xaf8c898e	-2.556359e-10
31	0xbb45717e	-0.003012746
32	0xbb46fc5b	-0.0030362818
33	0xb633fc47	-2.6819923e-06
34	0xbb9c24fb	-0.0047651506
35	0x3cbd1cdc	0.02308505
36	0xbbd7dfb1	-0.0065879454
37	0xbb470a08	-0.003037097
38	0xbb447238	-0.0029975306
39	0xbaadec6f	-0.0013269315
40	0xbb410103	-0.0029450066
41	0x3cd1ccae	0.025610294
42	0xbb4609ab	-0.0030218165
43	0xba8a874c	-0.0010568886
44	0x27ce8c7f	5.732881e-15
45	0xbb68725d	-0.0035468556
46	0xbb20eb42	-0.0024554287
47	0xbb431a67	-0.0029770376
48	0xbb4e4876	-0.0031476296
49	0xbb452e3e	-0.0030087377
50	0x3e58b0ec	0.2116124
51	0x3d7c8c01	0.061656956
52	0xbdc8fc58	-0.09813756
53	0x3dbf6812	0.09346022
54	0xbb75d120	-0.0037508681
55	0xbe1cda73	-0.15317707
56	0x3d24739e	0.040149324
57	0x3e57c0f0	0.21069694
58	0x3df32279	0.118718095
59	0xbe8f9f91	-0.28051427
60	0xbe99bdbd	-0.3002757
61	0x3ea3a812	0.31964165
62	0x3e3e478a	0.18581977
63	0xbe90b772	-0.28264958
64	0x3e6d3972	0.23166445
65	0x3e6788a3	0.22610717
66	0x3e7ab577	0.24483286
67	0x3e85b1c6	0.26112193
68	0x3e59dbf5	0.21275313
69	0x3ea9361f	0.33049104
70	0x3e7cfb66	0.24705276
71	0xbea358ce	-0.3190369
72	0x3d9633e9	0.0733412
73	0x3e8bd709	0.27312496
74	0x3e57c139	0.21069802
75	0x3e1dea69	0.15421452
76	0xbe117d8b	-0.14208047
77	0xbd21907c	-0.03944443
78	0x3db07dda	0.08617754
79	0x3e111e5b	0.14171736
80	0x3e33af16	0.17547259
81	0xbda3f027	-0.0800479
82	0xbe2395e9	-0.15975155
83	0xbe443eae	-0.19164535
84	0xbe69373b	-0.22774975
85	0x3d9b388b	0.07579144
86	0xbde90374	-0.11377612
87	0xbe2ef158	-0.17084253
88	0x3dfdfc8d	0.12401686
89	0xbd450d54	-0.048108414
90	0xbd20630b	-0.039156955
91	0xbe13dba7	-0.1443926
92	0xbe2b50a9	-0.16729988
93	0xbd810ae4	-0.06300905
94	0xbdf5f3dd	-0.12009404
95	0xbe46395b	-0.19357817
96	0x3dc17f4e	0.094481096
97	0xbe08bd5a	-0.13353482
98	0x3cd9be0c	0.02657988
99	0x3dbf1f08	0.093320906
100	0x3d03c5ec	0.032171175
101	0xbdd57435	-0.10422555
102	0x3ccfc980	0.025364637
103	0x3d4a352e	0.049367122
104	0xbd879f8f	-0.0662223
105	0xbde4d25b	-0.111729346
106	0xbe6313c8	-0.22175515
107	0x3ca28287	0.01983763
108	0xbcb787a6	-0.02240355
109	0xbd0dd364	-0.034625426
110	0x3df5a17f	0.119936936
111	0x3ceae55e	0.028673824
112	0xbe6e9a0c	-0.23300952
113	0xbe4b4ea3	-0.19854216
114	0xbdc20e99	-0.094754405
115	0xbd09babb	-0.033625346
116	0xbdf78b3d	-0.120871045
117	0x3d162b46	0.036662363
118	0xbe33ba10	-0.17551446
119	0x3b8e3bba	0.004340616
120	0xbd2de386	-0.04245331
121	0xbe758bbe	-0.23979089
122	0xbe0def35	-0.13860781
123	0xbe7d2e1f	-0.24724625
124	0x3c2fdbb2	0.010733532

mlp.mlps.1.0.bias f4 [5]
0	0x3e7505d3	0.23928003
1	0xbc9fed7c	-0.019522421
2	0x3ca9d51e	0.020731505
3	0x3dd34aaa	0.103169754
4	0x3decd1f3	0.11563482

BN.weight f4 [50]
0	0x3f800000	1.0
1	0x3f800000	1.0
2	0x3f800000	1.0
3	0x3f800000	1.0
4	0x3f800000	1.0
5	0x3f800000	1.0
6	0x3f800000	1.0
7	0x3f800000	1.0
8	0x3f800000	1.0
9	0x3f800000	1.0
10	0x3f800000	1.0
11	0x3f800000	1.0
12	0x3f800000	1.0
13	0x3f800000	1.0
14	0x3f800000	1.0
15	0x3f800000	1.0
16	0x3f800000	1.0
17	0x3f800000	1.0
18	0x3f800000	1.0
19	0x3f800000	1.0
20	0x3f800000	1.0
21	0x3f800000	1.0
22	0x3f800000	1.0
23	0x3f800000	1.0
24	0x3f800000	1.0
25	0x3f800000	1.0
26	0x3f800000	1.0
27	0x3f800000	1.0
28	0x3f800000	1.0
29	0x3f800000	1.0
30	0x3f800000	1.0
31	0x3f800000	1.0
32	0x3f800000	1.0
33	0x3f800000	1.0
34	0x3f800000	1.0
35	0x3f800000	1.0
36	0x3f800000	1.0
37	0x3f800000	1.0
38	0x3f800000	1.0
39	0x3f800000	1.0
40	0x3f800000	1.0
41	0x3f800000	1.0
42	0x3f800000	1.0
43	0x3f800000	1.0
44	0x3f800000	1.0
45	0x3f800000	1.0
46	0x3f800000	1.0
47	0x3f800000	1.0
48	0x3f800000	1.0
49	0x3f800000	1.0

BN.bias f4 [50]
0	0x00000000	0.0
1	0x00000000	0.0
2	0x00000000	0.0
3	0x00000000	0.0
4	0x00000000	0.0
5	0x00000000	0.0
6	0x00000000	0.0
7	0x00000000	0.0
8	0x00000000	0.0
9	0x00000000	0.0
10	0x00000000	0.0
11	0x00000000	0.0
12	0x00000000	0.0
13	0x00000000	0.0
14	0x00000000	0.0
15	0x00000000	0.0
16	0x00000000	0.0
17	0x00000000	0.0
18	0x00000000	0.0
19	0x00000000	0.0
20	0x00000000	0.0
21	0x00000000	0.0
22	0x00000000	0.0
23	0x00000000	0.0
24	0x00000000	0.0
25	0x00000000	0.0
26	0x00000000	0.0
27	0x00000000	0.0
28	0x00000000	0.0
29	0x00000000	0.0
30	0x00000000	0.0
31	0x00000000	0.0
32	0x00000000	0.0
33	0x00000000	0.0
34	0x00000000	0.0
35	0x00000000	0.0
36	0x00000000	0.0
37	0x00000000	0.0
38	0x00000000	0.0
39	0x00000000	0.0
40	0x00000000	0.0
41	0x00000000	0.0
42	0x00000000	0.0
43	0x00000000	0.0
44	0x00000000	0.0
45	0x00000000	0.0
46	0x00000000	0.0
47	0x00000000	0.0
48	0x00000000	0.0
49	0x00000000	0.0

BN.running_mean f4 [50]
0	0x00000000	0.0
1	0x00000000	0.0
2	0x00000000	0.0
3	0x00000000	0.0
4	0x00000000	0.0
5	0x00000000	0.0
6	0x00000000	0.0
7	0x00000000	0.0
8	0x00000000	0.0
9	0x00000000	0.0
10	0x00000000	0.0
11	0x00000000	0.0
12	0x00000000	0.0
13	0x00000000	0.0
14	0x00000000	0.0
15	0x00000000	0.0
16	0x00000000	0.0
17	0x00000000	0.0
18	0x00000000	0.0
19	0x00000000	0.0
20	0x00000000	0.0
21	0x00000000	0.0
22	0x00000000	0.0
23	0x00000000	0.0
24	0x00000000	0.0
25	0x00000000	0.0
26	0x00000000	0.0
27	0x00000000	0.0
28	0x00000000	0.0
29	0x00000000	0.0
30	0x00000000	0.0
31	0x00000000	0.0
32	0x00000000	0.0
33	0x00000000	0.0
34	0x00000000	0.0
35	0x00000000	0.0
36	0x00000000	0.0
37	0x00000000	0.0
38	0x00000000	0.0
39	0x00000000	0.0
40	0x00000000	0.0
41	0x00000000	0.0
42	0x00000000	0.0
43	0x00000000	0.0
44	0x00000000	0.0
45	0x00000000	0.0
46	0x00000000	0.0
47	0x00000000	0.0
48	0x00000000	0.0
49	0x00000000	0.0

BN.running_var f4 [50]
0	0x3f800000	1.0
1	0x3f800000	1.0
2	0x3f800000	1.0
3	0x3f800000	1.0
4	0x3f800000	1.0
5	0x3f800000	1.0
6	0x3f800000	1.0
7	0x3f800000	1.0
8	0x3f800000	1.0
9	0x3f800000	1.0
10	0x3f800000	1.0
11	0x3f800000	1.0
12	0x3f800000	1.0
13	0x3f800000	1.0
14	0x3f800000	1.0
15	0x3f800000	1.0
16	0x3f800000	1.0
17	0x3f800000	1.0
18	0x3f800000	1.0
19	0x3f800000	1.0
20	0x3f800000	1.0
21	0x3f800000	1.0
22	0x3f800000	1.0
23	0x3f800000	1.0
24	0x3f800000	1.0
25	0x3f800000	1.0
26	0x3f800000	1.0
27	0x3f800000	1.0
28	0x3f800000	1.0
29	0x3f800000	1.0
30	0x3f800000	1.0
31	0x3f800000	1.0
32	0x3f800000	1.0
33	0x3f800000	1.0
34	0x3f800000	1.0
35	0x3f800000	1.0
36	0x3f800000	1.0
37	0x3f800000	1.0
38	0x3f800000	1.0
39	0x3f800000	1.0
40	0x3f800000	1.0
41	0x3f800000	1.0
42	0x3f800000	1.0
43	0x3f800000	1.0
44	0x3f800000	1.0
45	0x3f800000	1.0
46	0x3f800000	1.0
47	0x3f800000	1.0
48	0x3f800000	1.0
49	0x3f800000	1.0
