auto_select/trained_model/model.pth (torch, 76551 bytes, 18 tensors)

mlp.mlps.0.0.weight f4 [45, 90]
00000000: 3da6 cbbc 649d 63bd dd5c bf3d 3315 82bc
00000010: b7a6 8bbd b73a a9bd 2245 1b3c 3b8a d9bd
00000020: a70f 793d 0b0f fa3c 0add d73d 02d4 a6bd
00000030: 89b9 d5ba 11b1 48bc 7e32 b73c 76ce 813d
00000040: 4270 723d abde 09bc d2c1 c73d a3ed 28bd
00000050: fec9 a8bd 5663 7e3d 02a4 94bd 7546 e53d
00000060: db39 d3bb 9841 323d 03a7 98bc bd42 52ba
00000070: 9536 783d d5b0 a5bd b4e7 babd d397 7bbc
00000080: f1c2 c3bc c42a fb3d 02b2 443e 9266 4cbd
00000090: dcb7 ee3d bfbd 6b3d 1f65 d0bd f692 29bd
000000a0: 2690 563e 4e4f 7d3e 7ae4 2b3e 41bf 05be
000000b0: ec01 be3d 9599 1fbd 4d11 613d 622c 9d3a
000000c0: e9ad a2bd 1723 e83d 647a f1bd f32c 723d
000000d0: 4622 05be ea0c acbc 7a2e 8a3d 88c9 413e
000000e0: fe63 fd3d ba9f 42bd e8e7 ddbd 534e 443b
000000f0: 83d5 903b 7cca e1bb 5a0e adbd c985 823c
00000100: b805 30bd 3e65 a83d 87ef e83c 87f1 3fbd
00000110: c884 673c fd20 553d c81c 6dbd 236f 963c
00000120: ccee e83d 0f23 8bbd 8674 99bc 1601 333d
00000130: e192 fc3c fe11 4fbd c5ee 28be 611f 35be
00000140: a403 0c3e 3662 aabc 1eaf 953c bd42 743c
00000150: 8df3 2f3d 2be7 923c 57cc 8dbd 6e28 663d
00000160: 5de3 133d 1193 71be bada 8abb 2536 db3b
00000170: 7a3c 07bb c1bc dabc 7b59 a13d e068 8c3d
00000180: 0d65 a139 d544 863c 7386 41bd 5aaa 0dbd
00000190: 9b7a 97bd ab47 2e3d 62eb 7b3d 8a69 c73d
000001a0: f989 95bc d675 c13b c51b 593c 0989 98bd
000001b0: b993 d4bd 8b0b fc3c 6e09 f5bc be05 d33d
000001c0: bf3f d3bc 0d95 353d ce17 b6bd 5bc0 a13c
000001d0: 8e95 abbd db8d 0abe 2381 68bd 6103 95bd
000001e0: 77c7 e53d 3501 fb3c 3867 723e 02ea 083e
000001f0: 12d0 003d 281b 29bc b4da 8cbc c45e 56bd
00000200: 6bbf b33d 5a69 4cbe 1f22 003d 0c7c 9c3d
00000210: 4761 603d 7376 d63c ebea 91bb 0a09 e8bc
00000220: 196f f3bc fe55 8abd 6b63 ddbd d866 513a
00000230: dce9 463d 4a87 a8bd bdcf 2c3e 7660 83be
00000240: a44b f7bd c175 f9bd ffaa d7bd 7fab d73d
00000250: e731 d23d fca7 22be 982b 103d 31ba 5c3e
00000260: 2476 103e c51c a4bd 93aa d33d ec3f 20bc
00000270: 0505 42bc 07d1 09be 9227 473e 3075 90bd
00000280: 2694 05bd 7c9a a5bd 0196 3ebe f18c c63c
00000290: 8c74 d73c 9207 68be 561b 9cbd 8d9c eaba
000002a0: 6a18 03be cbeb f73c 786b ef3d efed 42bd
000002b0: 2605 13be 1e36 92bd 7ccc 253e 0826 133e
000002c0: 02a4 debd 9f71 69bd 52df 7cbd 5559 01bd
000002d0: f4ba 8dbd 39e8 6d3d 8f76 a83c 8ca5 c8bd
000002e0: 6456 9bbc bb14 aebd 4ee6 173c a699 05bd
000002f0: 05b8 dfbc dbd1 4cbd cb21 bcbc 0974 c33d
00000300: f5b0 b13d 1448 e7bc a5c6 ea3c ae11 743c
00000310: 8b23 0a3d 39e3 bdbc f419 aabd 2ec6 be3d
00000320: ade6 623d d80d a4bc 9910 2500 3beb 303c
00000330: efa5 55bd 1ea2 8fbc 6d7e a73d 48c7 eebd
00000340: a847 a0bc a1e2 ce3c 96a6 14bd 5f54 ccbb
00000350: 0e09 7695 8e00 7b0d 980c 8811 a9b1 2c80
00000360: 6ef0 f2bd 38d0 5b3c 82c0 093d c791 d6bd
00000370: dece fcbc 6675 bcbb 074d f2bb 80bf 30bd
00000380: 187c 85bd 46eb 393c f05c 563c ec83 68bd
00000390: 2100 153d ab80 54bc 6e4d b13d fa6d 30bd
000003a0: 0e84 b93d 4a1a 703d 865b 693c 9144 953d
000003b0: 9a15 dc3d 11dd d4bc 0b4c 013c 6915 52bd
000003c0: 891e debd 5faa 3ebd 2275 88bd c95c 983d
000003d0: 99ed ae3d 8e55 84bd 0094 1fbe 524d eabd
000003e0: 45f2 69bd ad5c 093e 3ca0 52bb fd38 21b9
000003f0: 58ae 76bd 0de3 8c3d 5fa8 e83c 2842 92bd
-0.024859542 -0.05557002 0.09343884 -0.01587925 -0.06818908 -0.08263152 0.009476932 -0.106220685
0.060805943 0.030524751 0.10540207 -0.08145906 -0.0016305904 -0.012249247 0.022362944 0.063382074
0.05918909 -0.008414905 0.09753765 -0.041242253 -0.08241652 0.062106453 -0.072578445 0.11195079
-0.006446106 0.043519586 -0.018634325 -0.0008020809 0.06059893 -0.08090369 -0.09126225 -0.015356022
-0.023896666 0.12264016 0.1920853 -0.049902506 0.11656162 0.057554003 -0.10175537 -0.04139992
0.20953426 0.24737284 0.16786376 -0.13061239 0.0927771 -0.038964827 0.05494814 0.0011991377
-0.07943327 0.11334818 -0.11790922 0.0591249 -0.13001356 -0.021002252 0.06747146 0.18924534
0.123725876 -0.04751561 -0.10835248 0.0029953911 0.004419984 -0.006890593 -0.08450003 0.015932934
-0.042974204 0.082224354 0.028434528 -0.046861198 0.014130779 0.052033413 -0.057888776 0.018363541
0.11373672 -0.06793796 -0.01873232 0.043702208 0.030831756 -0.050554268 -0.16497333 -0.17687751
0.13673264 -0.020798784 0.018271979 0.01490849 0.042956877 0.017932495 -0.0692374 0.0561909
0.036105502 -0.23591258 -0.0042375 0.006689804 -0.0020635412 -0.026701333 0.07878395 0.06855941
0.00030783602 0.016390244 -0.04724736 -0.034586288 -0.07396432 0.042548817 0.061503775 0.09736927
-0.018254267 0.0059039397 0.01325125 -0.074480124 -0.10379738 0.030767223 -0.029911723 0.103038296
-0.025787232 0.0443316 -0.08891259 0.019745043 -0.08378135 -0.13530676 -0.05676378 -0.07276035
0.112196855 0.030640224 0.23672187 0.13370517 0.03144843 -0.010321416 -0.01719413 -0.05233647
0.087767445 -0.19962063 0.03128254 0.076408476 0.05478027 0.026179528 -0.004453053 -0.028324623
-0.029716061 -0.06754683 -0.10809978 0.0007988042 0.04856287 -0.08228929 0.16876121 -0.2565953
-0.12074974 -0.12180663 -0.10530662 0.10530757 0.10263424 -0.15884393 0.035197824 0.21555401
0.14107567 -0.080133 0.10335269 -0.009780865 -0.011842017 -0.13458644 0.19448689 -0.07053602
-0.03261199 -0.08086106 -0.1861191 0.024237128 0.026300691 -0.22659138 -0.076224014 -0.0017899439
-0.12802282 0.030263802 0.1169042 -0.047590192 -0.14357433 -0.07139228 0.16191286 0.14369977
-0.10871126 -0.056993123 -0.061736412 -0.031579334 -0.06920424 0.058082793 0.020564346 -0.097972006
-0.018962093 -0.08500048 0.0092712175 -0.032617234 -0.027309427 -0.05000482 -0.022965332 0.09543616
0.0867633 -0.028232612 0.028659174 0.014896793 0.033725303 -0.023179637 -0.083057314 0.093151435
0.05539577 -0.020026132 3.403867e-39 0.010798271 -0.0521602 -0.017533358 0.08178411 -0.11659104
-0.019565418 0.02525455 -0.03629168 -0.0062356438 -4.9686447e-26 7.7346014e-31 2.1464778e-28 -4.104494e-39
-0.118622646 0.013416342 0.033630855 -0.104770236 -0.03086036 -0.0057512997 -0.0073944363 -0.04315138
-0.0651781 0.011347597 0.013083681 -0.056766436 0.036377076 -0.01297013 0.08657347 -0.04307363
0.090583906 0.05861882 0.014243012 0.07288469 0.10746308 -0.025984319 0.007891665 -0.05128995
-0.10845668 -0.046549197 -0.06662966 0.07439572 0.08541412 -0.06461631 -0.15583801 -0.11440529
-0.05711581 0.13414259 -0.0032138964 -0.00015375386 -0.06022486 0.06879244 0.028400598 -0.071415246

mlp.mlps.0.0.bias f4 [45]
00000000: 216e 7cbd 6301 9dbc 8bf8 b73c e047 393d
00000010: f892 a83d c10a d7ba 2418 8e3d b3a0 debd
00000020: 0aa7 0e3e 5c7d 2f3d f308 1f3e 311b 253d
00000030: 850c 0f3e 3381 653b 77f3 cb3d bc7b 863d
00000040: 1cfd 98bb e9bc 97bc 5945 4b3d 9781 283e
00000050: 885a 403d 1ff8 9d3b 81df 1f3e b2dc 023d
00000060: c34e a73d bc50 af3d 2902 e03c cfa3 7e3c
00000070: e6e2 933d 30f5 cbbc 8af9 593d 5d62 dabc
00000080: 7832 e4bc 9240 8e3d eb58 a7bd cd77 16bd
00000090: 1896 e1bd 1811 b2bd 3661 0db7 b5e2 413b
000000a0: 0e24 153e 5905 203b 0433 a695 5eca 3abc
000000b0: e047 5a3d
-0.061628465 -0.0191657 0.022457382 0.04523456 0.08231157 -0.0016406403 0.06938198 -0.10870495
0.13930908 0.04284416 0.15530758 0.040309135 0.1396962 0.0035019636 0.099585466 0.06566569
-0.004668845 -0.018522697 0.049626682 0.16455685 0.046961337 0.004820838 0.15612604 0.031948753
0.081693195 0.08560321 0.02734478 0.015541985 0.07221012 -0.024897188 0.053216495 -0.026658231
-0.027856097 0.069459096 -0.08171257 -0.036735345 -0.11014956 -0.086946666 -8.426889e-06 0.002958459
0.14564535 0.002441725 -6.7127355e-26 -0.011400787 0.0532912

mlp.mlps.1.0.weight f4 [5, 45]
00000000: 33cc eebe 1e18 0c3e 0128 8abe d167 4abe
00000010: 1271 533e f808 49bc 2541 54bd d07f 28be
00000020: 2825 01bf 78ea 47be 69c9 853e 3e85 70be
00000030: f22a b93e 6e3a 31be 556c 463e f338 9b3e
00000040: 6ef3 94be 4039 3ebe 975a cc3e 24b0 c23e
00000050: c18e bf3d 64d1 ac3e 146b dabd 4a97 2dbd
00000060: 47f8 a63e e103 3c3e d62c 21be 6c23 b5be
00000070: d59f 0e3e a924 503e af50 febb 101b 353d
00000080: d92f 7b3e 9b35 093e a833 27be d19f 86be
00000090: 088d abbd 4c12 a23d 7aff 0438 34fc 91bc
000000a0: 82f3 8c3e c747 633d b8b4 071a ac6c d43d
000000b0: d3fb 653e 5040 823d e362 49be cded 71be
000000c0: cdca b83d 24aa ca3d a444 a03e a52e 443e
000000d0: 48f9 9dbc 65fc 1a3e d01c 583e 18dd 603e
000000e0: 9de1 c93d 7196 f2bc 5a42 77bd d6ca 023e
000000f0: 7d80 9f3d 90d3 34be 03ad 533e 121e 0e3d
00000100: 2fe0 e7bc 1b4d 27be 9f3f 7bbd 7489 973e
00000110: 4f55 8dbd 06cd dfbd 6c2f cc3d ba48 de3d
00000120: 43a7 febd ed70 e63d 2ef0 2a3e 5700 2e3d
00000130: 5e15 963d 68f0 9ebe dec7 963d a48f 2cbd
00000140: 3aa5 cbbd b339 b43c 004f 59be 42ea 64ac
00000150: 7a04 e8bd 6013 9b3e 31af fbbc b083 2980
00000160: ebdf cf3d 8807 b8be e4ca a63d f0e6 2ebe
00000170: 5f52 033e fdff 4b3e 9e2d 09be fcda ffbd
00000180: a12c 103e aca4 363e 24d6 c83e b40a e5be
00000190: 7445 c8bd 7c40 dcbd 1d0c babd f682 d83d
000001a0: eb89 9a3d 6fca a5be e77f ba3d d138 74bd
000001b0: eb62 c9bd f69e 26be d070 273e 14ef 1c3c
000001c0: 5ff6 11bd e14d 7c3e 752e 13bf 81fa 97ba
000001d0: 895b d4bd 3795 243e 42eb bd3d 9ccd cb3d
000001e0: 4932 523e 9a87 fb3d e40c 303d d214 12be
000001f0: f081 5d3e b533 1e3d f681 1b3e fe67 5bbe
00000200: 016b 3fb4 9116 a0be 02c6 323c c920 5e3d
00000210: e0cb a416 d4e4 fc3d d6f6 ddbe 5f71 4c3e
00000220: 32a5 87be a4cd 153e 5b57 ed3d 218e 5fbe
00000230: b021 e0bd 423d 86bd 5676 023e 68ec 94be
00000240: 95c2 47be 61de cfbd 0032 593d 2ba9 96bd
00000250: d965 273e 5951 14be ce78 263e 0a8b 6ebd
00000260: e0d7 c9bd 30b8 8cbe efd8 a3be 7c38 2cbe
00000270: d7c9 03bd d251 c9be 93ff aa3c a1c6 513e
00000280: 1b3f f3bd 57f6 44be 0f26 263e ba4a ccbd
00000290: 29ec 2fbe bf0b c33d 4dd4 d03d 11e0 79be
000002a0: 002c 353d 0462 323e 75d1 f83c 23d4 ccbb
000002b0: 7392 bc3d e9d6 f296 823a de3d 2634 9cbe
000002c0: 78b9 2d3e 3249 df94 9ccb ae3d ffa2 103e
000002d0: 1159 3d3e 3939 bd3d 02df 16be fae2 f0bd
000002e0: 3cf6 2e3d dc12 84bd 9798 8a3d 2c69 e73d
000002f0: c41b c23c 6368 333d cc7d a5bd 5593 aabc
00000300: ad16 92bd d0ad 083e 5fa5 b2bd 6baf fa3c
00000310: aac9 5e3e c1ae 633d 1ac2 41be 4fb5 d4bd
00000320: 5baf cdbd 7239 57bd 47b4 2dbd 58e6 9bbd
00000330: 8a5d 713e 07b3 6ebb d84f edbb 3525 dd3d
00000340: 2478 9dbd c805 cd3d 9df5 84bc 9287 cc3b
00000350: d433 09bd f77b 543d fba3 e13c 4bee 4e3d
00000360: e625 69bd b6b7 0b3c 4319 cf99 fcbc 2b3e
00000370: 832d 99bd 3eb5 a0bd 6d5d 6d9e 943c b2bd
00000380: ec8f 47bd
-0.46640167 0.13681075 -0.26983646 -0.19766165 0.20648602 -0.012270205 -0.05181994 -0.16455007
-0.5044732 -0.19523036 0.26130226 -0.23488328 0.36165577 -0.17307445 0.19377263 0.30316886
-0.29091972 -0.18576527 0.39912865 0.3802501 0.093534 0.33753502 -0.10664955 -0.04238061
0.32611296 0.18360855 -0.1573976 -0.35378587 0.13928159 0.20326485 -0.007761083 0.044215262
0.24529971 0.13399355 -0.16328299 -0.26293805 -0.08376509 0.07913646 3.1709184e-05 -0.017820455
0.27529532 0.055488374 2.806333e-23 0.1037229 0.22459345 0.06359923 -0.19666629 -0.2362587
0.09023056 0.09895733 0.3130237 0.19158418 -0.019283906 0.15135343 0.21104741 0.2195934
0.098574854 -0.029612752 -0.060366012 0.12772688 0.07788179 -0.1765883 0.20671467 0.034696646
-0.028305141 -0.16338007 -0.06133997 0.29597056 -0.06901037 -0.10927777 0.099699825 0.10853715
-0.124342464 0.11252008 0.16693184 0.042480793 0.07328294 -0.3104279 0.073623404 -0.042129174
-0.09943624 0.02200017 -0.21221542 -3.2530788e-12 -0.11328979 0.3028822 -0.030723186 -3.812496e-39
0.10150131 -0.35943246 0.08144167 -0.17080283 0.12824391 0.1992187 -0.13396308 -0.1249294
0.14079525 0.17836255 0.39225876 -0.44734728 -0.09778872 -0.10754487 -0.09084342 0.10571854
0.07545837 -0.32381007 0.09106427 -0.059624497 -0.0983332 -0.16271576 0.16351628 0.009578485
-0.03563535 0.24639083 -0.5749276 -0.0011595042 -0.103690214 0.16072546 0.092733875 0.09951326
0.20526995 0.12281723 0.042981043 -0.14265755 0.21631598 0.03862353 0.15186295 -0.21426389
-1.7827189e-07 -0.31267217 0.010911467 0.054230485 2.6624292e-25 0.12348333 -0.43352383 0.19965123
-0.26493222 0.14629227 0.11588927 -0.21831562 -0.109439254 -0.06554653 0.12740454 -0.29086614
-0.19507821 -0.10149837 0.0530262 -0.07356485 0.16347446 -0.14484157 0.16257021 -0.058238067
-0.09855628 -0.27484274 -0.32001445 -0.16818422 -0.03217491 -0.39320236 0.02087382 0.20485927
-0.11877271 -0.19234596 0.16225456 -0.099751905 -0.17179932 0.09523725 0.10196743 -0.24401881
0.044231415 0.17420202 0.030373314 -0.0062508746 0.092076205 -3.9232836e-25 0.10851003 -0.30508536
0.16965282 -2.2546116e-26 0.08534929 0.14124678 0.18491007 0.0923943 -0.14733508 -0.11762042
0.042715296 -0.0644891 0.067673855 0.11299357 0.02369488 0.043800723 -0.080806345 -0.020822207
-0.07133231 0.13347554 -0.08722948 0.030601224 0.21756616 0.05558658 -0.189217 -0.10386144
-0.10043212 -0.05254502 -0.042408254 -0.07612294 0.23570839 -0.0036422627 -0.007242184 0.10798112
-0.07688931 0.10010868 -0.016230399 0.006241747 -0.033496693 0.051876035 0.027544012 0.050520223
-0.05692091 0.008527687 -2.1413501e-23 0.1677131 -0.07479384 -0.07847069 -1.25659955e-20 -0.087029606
-0.04872124

mlp.mlps.1.0.bias f4 [5]
00000000: 9fa5 2f3e cb19 473d 4276 d6bc 7ba4 c73d
00000010: 1977 82bd
0.17153023 0.048608582 -0.026179437 0.09748169 -0.06370372

controller.gate.0.weight f4 [3, 12]
00000000: b63f 603b 5e8b bd3e 6b7e 7bbe a1f9 1d3d
00000010: e3df b93e e091 993e c0f9 e63d 4592 6abd
00000020: 389b fa3d 9e8b 283e d571 b5bd 181c dc3d
00000030: d441 d33c 692b 843d 8325 96bd fb82 863e
00000040: 4817 1b3e 93c4 3e3e b3ba b13e b6a8 82bd
00000050: 1387 ff3e e594 bb3e 96bc 9d3e 816e 05bd
00000060: cc7a b93d 00e2 7d3d e8ad 2a3d 5232 e33e
00000070: fd0d c23e d6ee 933e 58f9 643e 97c9 3d3c
00000080: 0982 9b3e 115c 6b3e 793b d43e 8ab9 a33e
0.0034217662 0.3702039 -0.24559943 0.038568143 0.36303625 0.29994106 0.11278105 -0.0572684
0.12236637 0.1645951 -0.08859602 0.10747546 0.025788225 0.06453592 -0.073313735 0.26271805
0.151456 0.18629675 0.34712753 -0.06379835 0.4990774 0.36637035 0.30807942 -0.032576088
0.09056625 0.06198311 0.041669756 0.4437433 0.37901297 0.28893155 0.22360742 0.011583707
0.30372646 0.2298434 0.41451624 0.31977493

controller.gate.0.bias f4 [3]
00000000: ce01 d03d d50f ce3d b82b 4e3e
0.10156594 0.100616135 0.20133865

controller.SelectionNetworks.0.mlp.mlps.0.0.weight f4 [45, 90]
00000000: d449 6a3a 49dd 9839 1457 bdb8 57fd 0fb4
00000010: 1135 b6ba 31ca bfb3 baa5 53b0 9da8 56af
00000020: f0e6 ce39 f0f0 d68b dec9 a338 dfd1 edba
00000030: a2d8 bd39 f59f 09af 042c a1aa d40c 9bba
00000040: acbf 8536 2dae 45b6 0e2c b936 9eee 0bb0
00000050: f80c 7092 13e2 1fa6 11c4 a415 0ed5 3580
00000060: c286 c68d 7d87 a5a5 d59f 0e14 659c 8a35
00000070: 199e 1a8b 8cf1 c385 7d19 3580 5e95 5d93
00000080: fd47 4100 f68a d894 5106 9f93 4f4d ca05
00000090: e54d 1e0f 36d8 4500 345f 638c ae66 e48d
000000a0: f10d ce06 8da1 1193 c656 d98b 9160 9e8c
000000b0: fb90 9c91 9734 75ae 9137 2a80 9abe 8b94
000000c0: 546d 3000 4cdf 3880 62d5 5baa 138a 2600
000000d0: ac11 58ab 54d7 22ac dc31 c288 d248 0f81
000000e0: c7d1 3086 3b1a 9aa8 ead3 6032 a1cb f9b3
000000f0: d6e2 e494 5497 008f 2081 c390 98c6 cc95
00000100: 39de 098a 8140 d816 35fe 9c06 7c68 350b
00000110: 691a 1515 8401 3400 8a97 c58c f4f5 6792
00000120: 517a cb8f 7b9a bf94 8f22 f507 c262 2b86
00000130: e5bb 3800 8143 4d06 2336 1baa 1602 8d33
00000140: faf5 aa11 0e9a a195 388b 2b00 864f cf03
00000150: a695 2bb4 b6d5 4a0b 539f 35b0 388e 9336
00000160: 20b1 a4a1 ffc8 11b8 3c0c 93b8 9a0c feb8
00000170: ea46 97b8 6900 04b8 b03d 30b9 c879 3039
00000180: f71b cbb8 dc34 50b8 93e7 23b7 2238 dcb8
00000190: d836 eab6 7015 f0b9 2352 c5b8 5ed9 8436
000001a0: 9f62 15b8 60c9 7635 f317 b031 3c48 a8b4
000001b0: b41d 83b3 c7bf e2ad ea27 13b4 d32e c3b0
000001c0: b7b8 9d95 9d37 c0b1 4ab8 c1b1 404b 9fb5
000001d0: 6424 2c00 7ce5 b330 340b 1d94 00d7 1f00
000001e0: 4e47 1680 8bee b60d 7f02 b411 f854 960a
000001f0: fa19 0888 928a 4294 cb74 2b1e 6d3d 8fa2
00000200: 77db 2aa9 00aa c589 7434 a2aa 1814 1e80
00000210: 2249 eb83 4f8f e2a2 2485 3ca4 a74c 7fa8
00000220: cb54 82aa de12 d9a4 2e88 3712 3029 0ea9
00000230: 0dd6 c595 b0e9 a307 abfe 8f2a df12 80ab
00000240: 25c4 54a3 ebf4 0d00 35dc f990 1b65 8aa7
00000250: 5008 c124 01df 3a29 dfa0 d9aa 7252 92a7
00000260: 2125 5e98 03f3 2100 fb32 d7a1 5143 e3a3
00000270: a773 7f96 4d75 b59e e44a d5a3 5927 75ab
00000280: ffc2 6924 eb0c 1380 bced f401 51a3 01a8
00000290: 3420 28a4 59fc 8496 01e9 4508 8705 fea9
000002a0: 79e6 40a0 4486 9b28 36b4 cfab 8dbf 3890
000002b0: bcfc 85a5 a991 3495 d45f b528 e239 0aa2
000002c0: f900 1523 6e7e 5db4 920c 17aa fedc 64b4
000002d0: 2d10 83bd 5e99 c73d f530 f4bc 5790 a8bd
000002e0: afc1 8b3d 91de 3f3d 4eb0 dcbb dad9 a8bd
000002f0: 640c 013e b6e9 9dbd 44e6 8c3d 5a67 9fbc
00000300: 245a 5abd 7d38 6b3c b107 b93c bcce bdbc
00000310: c2cb 35bd 375f c33d 91bc 0ebd 1cba 5cbd
00000320: 5e35 7e3d d0b9 3abd 1ffd 0dbd ac71 44bd
00000330: da3e 01bc 4532 98bd 68d0 61bd 257f 943d
00000340: 4f42 d2bd ad7e 55bd f5a6 ff3c 6424 b5bd
00000350: a2b0 b8bd d027 043d a6f9 4300 7a8b 0000
00000360: 057d 40bd 7479 dabd 38ac 0dbd ebc4 3cbd
00000370: 00e1 d4bd faf3 82bd 2254 18bd 78ba 5dbc
00000380: b9e8 1d3d 8f14 4e3d aa56 5ebd 7618 44bc
00000390: a9af 463d b493 b83d 1248 ce3c 3e6f 2cbd
000003a0: 8fb7 4d3c e455 623d fa54 09bd 9aab b23d
000003b0: f158 d13c b675 04bc 78ff 06bd 866e 453a
000003c0: ff00 99bd 34c5 72bb 69f5 bfbc 8c5c 363d
000003d0: e3e6 d9bd 3bac 973c 66c4 5b3d 64f1 c3bd
000003e0: fe4d d53d 8114 89bd 6b7b 513d 8843 503d
000003f0: eb77 913d ab30 ae3d 446e 023d 3da4 b8bc
0.0008937393 0.0002915657 -9.028442e-05 -1.3410077e-07 -0.0013901313 -8.930909e-08 -7.6996864e-10 -1.952309e-10
0.00039463444 -8.2792324e-32 7.8100464e-05 -0.0018144211 0.00036210293 -1.2516906e-10 -2.8629887e-13 -0.0011829385
3.9860224e-06 -2.9456671e-06 5.5185583e-06 -5.0907e-10 -7.574663e-28 -5.5470594e-16 6.654841e-26 -4.943711e-39
-1.2235134e-30 -2.8714748e-16 7.200689e-27 1.0327318e-06 -2.977826e-32 -1.8426442e-35 -4.876425e-39 -2.7967765e-27
5.995132e-39 -2.1865237e-26 -4.014347e-27 1.9024387e-35 7.8050034e-30 6.414211e-39 -1.7516093e-31 -1.4076304e-30
7.750907e-35 -1.8381224e-27 -8.371592e-32 -2.4401873e-31 -2.4701811e-28 -5.575326e-11 -3.877024e-39 -1.4110592e-26
4.447323e-39 -5.222892e-39 -1.952514e-13 3.53928e-39 -7.676314e-13 -2.3141116e-12 -1.1687672e-33 -2.6317198e-38
-3.325604e-35 -1.710881e-14 1.30867e-08 -1.1632006e-07 -2.3111588e-26 -6.340032e-30 -7.7112887e-29 -8.270827e-26
-6.6381055e-33 3.493739e-25 5.90542e-35 3.4937937e-32 3.0111144e-26 4.77599e-39 -3.044386e-31 -7.319391e-28
-2.006446e-29 -1.9347003e-26 3.6883815e-34 -3.223408e-35 5.210192e-39 3.860581e-35 -1.3785548e-13 6.5662036e-08
2.6972866e-28 -6.527044e-26 3.998869e-39 1.2184624e-36 -1.5980058e-07 3.9064563e-32 -6.607383e-10 4.397498e-06
-1.1159957e-18 -3.4757886e-05 -7.011785e-05 -0.00012114011 -7.21345e-05 -3.1471634e-05 -0.00016807648 0.00016830035
-9.685003e-05 -4.9640294e-05 -9.769475e-06 -0.00010500873 -6.980128e-06 -0.0004579234 -9.408991e-05 3.9592114e-06
-3.5616216e-05 9.193518e-07 5.124997e-09 -3.1344996e-07 -6.105566e-08 -2.5778392e-11 -1.3704962e-07 -1.4201426e-09
-6.3703224e-26 -5.594258e-09 -5.6379905e-09 -1.1868324e-06 4.053816e-39 1.3089188e-09 -7.928684e-27 2.924028e-39
-2.04596e-39 1.1274043e-30 2.840053e-28 1.4476436e-32 -4.0956547e-34 -9.821825e-27 9.076817e-21 -3.8825265e-18
-3.7937938e-14 -4.7585892e-33 -2.8813377e-13 -2.762273e-39 -1.3828849e-36 -6.1409157e-18 -4.0878776e-17 -1.4171965e-14
-2.3151476e-13 -9.414071e-17 5.7912473e-28 -3.156606e-14 -7.990538e-26 2.4662863e-34 2.5578614e-13 -9.100185e-13
-1.1534078e-17 1.281721e-39 -9.8552465e-29 -3.8412313e-15 8.371449e-17 4.149372e-14 -3.865857e-13 -4.0612528e-15
-2.8711573e-24 3.117748e-39 -1.4582461e-18 -2.4639899e-17 -2.063523e-25 -1.9212635e-20 -2.3125224e-17 -8.709609e-13
5.068899e-17 -1.749509e-39 8.9972576e-38 -7.196352e-15 -3.645647e-17 -2.1485004e-25 5.9556426e-34 -1.1280825e-13
-1.633929e-19 1.7266685e-14 -1.4758253e-12 -3.6435167e-29 -2.3243082e-16 -3.6465616e-26 2.0136596e-14 -1.873313e-18
8.077512e-18 -2.0628224e-07 -1.3415855e-13 -2.1314551e-07 -0.0639957 0.09746049 -0.0298085 -0.08230656
0.068240516 0.046843115 -0.0067348843 -0.08244677 0.12602383 -0.077105924 0.06879857 -0.019458462
-0.05330862 0.01435673 0.022586675 -0.023169868 -0.04438377 0.09539645 -0.0348478 -0.053888425
0.062062614 -0.04558736 -0.034665223 -0.04795997 -0.00788852 -0.07431463 -0.055130392 0.072508134
-0.102665536 -0.05212276 0.031207541 -0.088448316 -0.09018065 0.03226453 6.242535e-39 5.0035e-41
-0.046994228 -0.106676966 -0.03458807 -0.046086233 -0.10394478 -0.06394191 -0.03718961 -0.013533227
0.03855202 0.050312575 -0.054281868 -0.011968723 0.048507366 0.09012547 0.02518085 -0.042098276
0.012555971 0.055257693 -0.033528306 0.08724137 0.025555106 -0.008084705 -0.032958478 0.0007531423
-0.07470893 -0.0037043812 -0.02343245 0.044521853 -0.10639741 0.018514743 0.053654097 -0.09567526
0.104152665 -0.06693364 0.05114309 0.050845653 0.07102951 0.085053764 0.03184344 -0.022539252

controller.SelectionNetworks.0.mlp.mlps.0.0.bias f4 [45]
00000000: 8351 8637 470b 6137 1677 8b3d f2f6 83bd
00000010: d7f1 7e3d 886c 5f3b 20f8 d53d 6764 efbc
00000020: b2d2 f5bc 12b8 123d 15cf 2dbd 5599 3d3c
00000030: f844 903d 45f8 4bbd 5cb7 12bc 2d63 b33d
00000040: 687d 9bbd cb51 85bd 2f38 69bd 21f8 afbd
00000050: 6233 7a3b 825d 773d 1bb8 b8bc b525 46bc
00000060: 1703 013b 470e 0fbe a8e5 d4bc b05d 7d3a
00000070: a571 19bd afd3 723d 5e54 9f3d 60da da3a
00000080: 8f71 3dba dda3 363d 6deb 10bd 6c2b e63d
00000090: d4e5 9e88 0998 e2bc 74a6 6ebd 20f8 d3bc
000000a0: d59e c9bd ef7a 40bd 3e2c e9bd 3934 833d
000000b0: 9cfb e23c
1.6012002e-05 1.3413671e-05 0.06809823 -0.064435855 0.062242355 0.003409179 0.10447717 -0.02922268
-0.030007694 0.035820074 -0.042433817 0.011572202 0.07044405 -0.049797315 -0.008954849 0.08759151
-0.07592279 -0.065097414 -0.056938346 -0.08592249 0.00381776 0.06039191 -0.022548726 -0.012093951
0.001968568 -0.1397029 -0.025988415 0.00096651446 -0.037461895 0.05928391 0.07779764 0.0016697161
-0.00072266994 0.044589866 -0.03538077 0.11238751 -9.563311e-34 -0.027660387 -0.05826421 -0.025875151
-0.09844748 -0.04699224 -0.11385392 0.06406445 0.027707867

controller.SelectionNetworks.0.mlp.mlps.1.0.weight f4 [4, 45]
00000000: 8b36 be34 d220 0b27 30ff 86bd f450 1bbe
00000010: 8f48 0a3c c2d1 423c 8904 3dbd ebaf 0fbe
00000020: 8a20 b93d 6e25 5d3d 3b94 e1ba ecb3 66bc
00000030: 6a1a a53c 8466 82bd dbfb 2a3e 8f7f 98bd
00000040: e4ac d73d ec8c c4bd 3ed0 1abd c65f 53bd
00000050: 0402 e8bd 8b7d 5dba a24c afbd a1a2 d4bd
00000060: 47f8 aebd 63d6 b9bd 6b13 1abe e563 aa3d
00000070: 9ac9 f0b9 20fd 0bbe 07fe 9838 5337 d63c
00000080: 8b72 5cb2 2bb3 c1bd 36cb dc3c 0821 db3c
00000090: 0419 3f1c 61c1 cd3b 0b7b edbd a172 393d
000000a0: 017f a13d 2f1c 27bc 1d3d 773d b1d0 82bd
000000b0: a30d 90bd fca9 07b6 ce00 47b3 2800 41bc
000000c0: 9f56 273e e21c 1f3e 2fd4 ab3d 67c6 4b3e
000000d0: 8c07 ec3d c7eb 153e 5f53 823d 5147 5e3e
000000e0: ecba 593d 9369 74bc f1fe 03be 52fc 503d
000000f0: 84b4 7b3c acd1 0b3e 8082 483b 5401 f13d
00000100: 7858 09be 0fef b83c 097b 5f3e 7467 8d3d
00000110: 0336 133e 101e e33d 5365 23be 4382 31be
00000120: 4243 503c 8953 fe39 9d8c 473d 86a6 23be
00000130: 7fe8 c13d 2709 e3b6 d0c7 883e b813 12be
00000140: b4bf df3d fe18 d81d 9dc7 f33d 83fa a4bd
00000150: 3b41 4d3e 8302 0abd 78e6 ad3d 3bce 1abe
00000160: f930 2b3d d4af b23d 051e 0fab 5886 2faa
00000170: 75a7 493e 1baa 08be 0067 81bd 1e13 bcbd
00000180: dab2 55be 0ec1 98bd 821e f2bd 587c 773d
00000190: 329e 79be 139d 41bd 692f a93d 4497 b23c
000001a0: 9dfb d1bd 0364 0abe 44f3 4bbd bfe7 ccbb
000001b0: 5d53 5fbd f926 4a3e b208 003e 2ac4 c53b
000001c0: b7ba 9d3d a5a0 033e 8a41 963a e0e2 363e
000001d0: 8843 e43d ee00 41be 4a34 ed92 dea8 233e
000001e0: 9b46 e3bc 94a5 70bd 3699 2239 6700 74bd
000001f0: 9c5d 023e c4d3 10be 9cc6 3680 a8b6 66bd
00000200: 9308 3d3d fad6 15be b41e 7ebd 1fbb ed3b
00000210: 8022 9cbc 0cc0 35be f7cd 8b3c 8fc5 f785
00000220: 111a e10e a78e e5bc 267b d7bd de03 1dbe
00000230: 4337 c4bd dd9a 04be 00df c9bd 70bf 6fbd
00000240: a14d b8bd c4b2 993d 6a5b 46bc 0fd1 3f3c
00000250: 2340 3b3e d30f 4b3d 3354 a0bc 3f0e 8ebc
00000260: 16b1 dd8b e5ec 0980 c2a2 1abd c5e8 07bd
00000270: 45da 683d 8504 e23c 7eec 79bd 6d16 94bc
00000280: a2df d7bc ef64 053d e835 32be a0ac 040e
00000290: dfd7 c13d 4f32 7c3c 4a34 c7bd e1a9 9d1b
000002a0: 9924 c7bc 04b1 983d ce46 8b3d 0380 3a80
000002b0: b6fd b1bc bd91 e63d 6287 1dbe dc02 83bc
000002c0: 93e8 dd3d fd47 923c 4f09 6b3d cb5b d7bd
3.5429943e-07 1.9307917e-15 -0.06591642 -0.151676 0.008440151 0.0118908305 -0.046146903 -0.14031951
0.090394095 0.053990774 -0.0017210314 -0.014080983 0.020154197 -0.063672096 0.16697638 -0.07446205
0.10531023 -0.09597191 -0.03779625 -0.05160501 -0.113285094 -0.00084491883 -0.085595384 -0.103825815
-0.08543449 -0.09074094 -0.1504647 0.083198346 -0.00045926572 -0.13670778 7.295241e-05 0.026149428
-1.28317295e-08 -0.09458002 0.026952367 0.026749149 6.322893e-22 0.006279156 -0.11595734 0.045275334
0.07885552 -0.010199591 0.060361017 -0.06387461 -0.07033851 -2.0215512e-06 -4.633403e-08 -0.011779822
0.16341637 0.15538362 0.0839008 0.19899903 0.11524877 0.14640723 0.06363558 0.21706893
0.05315678 -0.014917749 -0.12890221 0.05102188 0.0153628625 0.13654202 0.0030595362 0.117678314
-0.13412654 0.02257493 0.21824278 0.06904498 0.14376073 0.11089718 -0.15956621 -0.17334847
0.012711348 0.00048508894 0.048718084 -0.15981492 0.09468173 -6.7661927e-06 0.26714945 -0.14265335
0.10925236 5.7200565e-21 0.119033076 -0.08055594 0.20044415 -0.0336938 0.08491224 -0.15117733
0.04179475 0.08724943 -5.0845466e-13 -1.5589732e-13 0.19692786 -0.1334614 -0.06318474 -0.09183334
-0.20869008 -0.07458697 -0.11822225 0.060421318 -0.24376753 -0.04726894 0.08260996 0.021800645
-0.102530695 -0.13514714 -0.049792543 -0.006253212 -0.05452286 0.1974143 0.12503317 0.0060353475
0.07701629 0.1285425 0.0011463624 0.17859983 0.11145693 -0.18848011 -1.4969693e-27 0.15982386
-0.027743628 -0.058751658 0.000155066 -0.059570696 0.12731022 -0.14143282 -5.030364e-39 -0.05632654
0.046150755 -0.14632788 -0.062041 0.0072549726 -0.01905942 -0.17749041 0.017065985 -2.330034e-35
5.5491883e-30 -0.028022124 -0.105215356 -0.15333506 -0.09580853 -0.129497 -0.09856987 -0.05853218
-0.089991815 0.075048 -0.012106756 0.011707558 0.18286185 0.049575638 -0.0195714 -0.017340777
-8.539255e-32 -9.11501e-40 -0.037752874 -0.03318097 0.056848783 0.027590046 -0.061016552 -0.0180771
-0.026351754 0.03256696 -0.17403376 1.6353372e-30 0.09465002 0.015392854 -0.0972677 2.6083253e-22
-0.024309443 0.07455638 0.06800614 -5.372381e-39 -0.021727424 0.11258266 -0.15383676 -0.015992574
0.10835376 0.017856592 0.057381924 -0.10515555

controller.SelectionNetworks.0.mlp.mlps.1.0.bias f4 [4]
00000000: b4c0 a03d c60a 123e 29ff 213e 1701 85bd
0.07849255 0.14261922 0.15819992 -0.064943485

controller.SelectionNetworks.1.mlp.mlps.0.0.weight f4 [45, 90]
00000000: 8b90 a33c 4dba a1bd 2169 153d 7cb2 e8bd
00000010: c2fd 91bd af07 4d3c ab44 a13d b607 723d
00000020: 4485 2dbd 83bf 4b3c 1275 663a f85e 813d
00000030: e425 3a3d 9ccb 7c3d dbe1 c53c 5985 b93d
00000040: 0033 dbbd ed39 153d 639e 0a3d be37 31bd
00000050: 4a52 3f3d fc61 a13d a735 e43d 2d18 b33d
00000060: e255 c73c df4f 973c 57e7 1b3d ac71 6fbd
00000070: 2c74 503d fde6 ff3d 3800 afbd fa58 bcbd
00000080: e079 dd3c 9251 823c 71d6 dcbd fb30 353b
00000090: 6fd2 863c 7f24 12be b4b9 aebd 740d 7e3d
000000a0: 3f05 00be 20eb 0dbe 1bb8 62bd 27bb 0abe
000000b0: 235d 163c 6543 783d 11db adbd c99d 1cbe
000000c0: 2503 f03d 0214 70bc 3ecd 973d 7d10 90be
000000d0: 160a 56bc f5ec 753d d2d6 1fbd 2744 fbbc
000000e0: 2aaf a8bc 2a1d 88bd 2153 cfbd a53b 21bd
000000f0: 8259 bdbd cf0c a7bc ceb9 aebd aaf4 66bd
00000100: 044d b4bd dcbf e23d 257c 203a ca7d 9fbd
00000110: 6456 cbbd bbc8 043d 1417 be3d 768d 063e
00000120: 7ebc 093e 1e0c 333d 062f 863e 94b2 67be
00000130: bcc4 f03c ce34 68bd f599 b53c 61eb e73d
00000140: c75b 083d 2491 fbbd 7fe6 323c d43b 883d
00000150: c28a f7bd 9143 72bd 556d 463a 53c8 ccbd
00000160: 87c9 69bd 782b 1f3d 53f7 073d 7a2d c3bd
00000170: c9e5 e73d 6cf2 86bd d5a9 ae3d cbdc 4d3d
00000180: 3288 83bc 7c7d eabc d852 b2bc 7bb7 36bd
00000190: a872 66bd f56f 95bc 63a9 8d3d dec2 5f3d
000001a0: 8bb6 a5bd 289b b93d e967 b43d 2cea 02bd
000001b0: d0ed bd3d f684 1c3d d0cc 38bd 2e0f b2bd
000001c0: 24d1 17bd ce09 73bd 904b 4a3d 9b50 34bd
000001d0: 6dfd f1bd f2df ab3d fa8c 0cbd f8f9 e43c
000001e0: 8687 983d 9961 a63d 09de 803d 5203 65bc
000001f0: d45a b33d a2cf debd 07f0 b73d 22a5 cebc
00000200: e4c4 b0bd da20 aebd ee64 193e b248 c23d
00000210: 41f9 b33c e079 093e 6c92 c9bd 4c3c 943d
00000220: fc45 703c 295e d63d 1c32 35bd 1047 a6bd
00000230: 86c1 b4ba e305 733e 329e ea3d 7ce5 50bd
00000240: ef53 47bd 2b04 3d3c f603 aabc bff3 653c
00000250: fb20 e93d b919 863d b61c a7bd 5806 d53d
00000260: c9d9 63ba f248 583d d937 0b3e c849 5e3c
00000270: 1747 9cbd 859c 0f3d 52d1 06bd fa8d c0bd
00000280: efb4 58be 0227 69bd 661a 46be efd2 2ebd
00000290: 752e 2ebe 9403 9e3d 3ad7 2f3d 1ff3 b33c
000002a0: 2b26 9fbd 7daa ec3b 9983 5e3d 892a 75bc
000002b0: be72 9b3d 0b66 a93c 37af d43d a053 8f3d
000002c0: 6ff7 453d 9452 aebd a26a 39bd ab18 8c3d
000002d0: 8cce 55bd 8866 62bd af53 443d 3aff 60bd
000002e0: 9573 ac3c 4127 6ebd fe62 df3c 2fb5 d43b
000002f0: 1c37 503d d47b d9bc 7b73 d3bc bf11 c2bc
00000300: cfe4 a3bd 61e9 973d 1d68 773d 5d19 b63d
00000310: 6d79 f03c 639a 2bbd 6704 a63d 65bd 97bd
00000320: 3b5f 3abc 7b08 d7bd b0f4 80bd 01b8 1b3d
00000330: 6f35 40bd 9354 9c3d 3077 fd3c aee4 e9bc
00000340: ebf0 05bd e723 063d fd97 a83c 02a8 42bd
00000350: 7f3b 183b 6777 03bc 35ed d23b 092d b7bc
00000360: 2c4f 1f3d 8347 ab3c 9dc9 9f3d 4f30 553d
00000370: be80 2fbd 1084 9c3d 2b9f 233d 8106 883d
00000380: 6cbf 26bc 0d9e 9d3d e9b2 3fbd 7b67 b63d
00000390: 0545 f8bc 0591 273c 1161 44bd 5db2 0e3c
000003a0: 2e79 b23d b74f bcbc e14d 8d3d f1fb 3fbd
000003b0: 24e5 f9bb 2a54 823c af75 273d 7a91 32bc
000003c0: 7789 44bd e747 153d f9e1 9bbd 3816 3cbd
000003d0: 5a2f c9bc 5fc2 53bd 5f50 a7bc b6e6 8d3d
000003e0: b5bc b13d 425d 9c3d ba43 67bd c1e4 2f3d
000003f0: 7d35 97bd 6a68 073d db79 da3d cd93 06bc
0.019966384 -0.07896862 0.036477212 -0.11362168 -0.071284786 0.012514039 0.078744255 0.059089385
-0.04236342 0.012435797 0.00087912485 0.06316942 0.04544629 0.061717615 0.024155548 0.09058637
-0.10703087 0.036432195 0.033842456 -0.04326605 0.046709336 0.07880017 0.11143046 0.087448455
0.024332944 0.018470703 0.03806242 -0.058458015 0.05089204 0.124952294 -0.085449636 -0.091966584
0.027035654 0.015908036 -0.10783089 0.0027647603 0.016457764 -0.14271735 -0.08531514 0.06202455
-0.12502001 -0.13859224 -0.055351358 -0.13547955 0.009177479 0.060611147 -0.08489049 -0.15294565
0.1171935 -0.014653208 0.07412194 -0.2813758 -0.013063928 0.060040433 -0.039023228 -0.030672146
-0.020591337 -0.066461876 -0.101232775 -0.039363522 -0.09245588 -0.02039185 -0.08531533 -0.056385674
-0.08803752 0.110717505 0.00061220146 -0.07787664 -0.09928587 0.032417994 0.092817456 0.131399
0.1345081 0.043712728 0.2620775 -0.22626716 0.029390685 -0.056690983 0.022168139 0.11324192
0.03329065 -0.12283543 0.010919212 0.06652036 -0.12087013 -0.059146468 0.00075693923 -0.09999146
-0.057076957 0.038859814 0.03319485 -0.09530158 0.11323125 -0.06589207 0.08528487 0.050259393
-0.016056154 -0.028624289 -0.021768019 -0.044608574 -0.05626169 -0.018241862 0.069170736 0.0546292
-0.08091458 0.09062797 0.08808882 -0.031961605 0.09273875 0.03821274 -0.0451172 -0.086943015
-0.037064686 -0.059335522 0.04938847 -0.044022184 -0.11815915 0.083923236 -0.034314133 0.027951226
0.07447724 0.08124084 0.0629235 -0.013977842 0.087575585 -0.108794466 0.089813285 -0.025225226
-0.08631304 -0.0850236 0.14979908 0.09486522 0.02196944 0.13425398 -0.09842381 0.07238063
0.014665123 0.104671784 -0.04423724 -0.08119023 -0.0013790585 0.23732714 0.114559546 -0.051000103
-0.04866403 0.011536638 -0.020753842 0.014035164 0.11383244 0.06547875 -0.08159773 0.104016006
-0.00086918153 0.05280394 0.13595523 0.0135673955 -0.07630747 0.035061378 -0.032914467 -0.0940208
-0.2116277 -0.056921966 -0.19346008 -0.04268163 -0.1700991 0.07715526 0.042929865 0.021966515
-0.07770952 0.007222472 0.05432472 -0.014963754 0.07590245 0.02067854 0.10384982 0.06998372
0.048331674 -0.08511844 -0.04526771 0.068406425 -0.05219893 -0.055273563 0.04793137 -0.054930903
0.021051208 -0.058142904 0.027268883 0.0064913253 0.050833806 -0.026548304 -0.025811901 -0.023690103
-0.08002626 0.0741756 0.060402025 0.088915564 0.029354775 -0.04189528 0.081063084 -0.07409171
-0.011375244 -0.104996644 -0.062966704 0.038017277 -0.04692596 0.07633319 0.030940622 -0.028551426
-0.03270046 0.032749083 0.020580286 -0.047523506 0.0023228822 -0.008024073 0.0064369687 -0.022360342
0.038893864 0.020908123 0.078021266 0.052048024 -0.042847387 0.076423764 0.039946716 0.066418655
-0.0101774745 0.076961614 -0.04680148 0.08906456 -0.030306349 0.010227446 -0.047944132 0.008709517
0.087145194 -0.02298723 0.0689962 -0.04687113 -0.0076261926 0.015909273 0.040883716 -0.010898942
-0.04798266 0.036445525 -0.0761146 -0.045919627 -0.024558712 -0.05169904 -0.020424066 0.0692877
0.08678571 0.07634975 -0.056461073 0.042942766 -0.07383249 0.03305856 0.10667773 -0.008213949

controller.SelectionNetworks.1.mlp.mlps.0.0.bias f4 [45]
00000000: c546 b2bd 6e52 a0bd 788b 003e e68c 1c3c
00000010: c112 843d 5c12 debc 30ab 2180 9196 b4bc
00000020: 9171 a5bd c64c a1bd 0cde 1cbd 14d2 d8bd
00000030: 7801 e09a 337d c5bb 3444 383d f22b 193b
00000040: 0463 a13d cd03 9d3d fc71 ce3d b8e0 91bb
00000050: 11d7 983c 64b0 89bd 3223 8b3c 3b96 cfbd
00000060: defe 803d 1c31 69bd 4750 edbd afa6 f4bc
00000070: 8a55 9a3d 06db ca3d eb24 873d fb42 9f3d
00000080: d0aa 863d 4e07 d6bd 988d 25bd cf2c 393b
00000090: fa90 943c dcc8 d1ad 8e16 95bd b7e0 77bc
000000a0: b456 133c b387 bc3d 5ed5 423c 32cf 523d
000000b0: 2be4 4400
-0.087049045 -0.07828222 0.12553203 0.009555077 0.064488895 -0.027108364 -3.091982e-39 -0.022044452
-0.08078302 -0.078759715 -0.038297698 -0.10586944 -9.26466e-23 -0.006026888 0.04498692 0.002337214
0.07880214 0.076667406 0.100803345 -0.0044518374 0.01865724 -0.06723097 0.016984556 -0.10136076
0.06298612 -0.0569316 -0.11587577 -0.029864637 0.075358465 0.09905057 0.065988384 0.077764474
0.06575549 -0.10450612 -0.040418237 0.0028255468 0.018135536 -2.3849749e-11 -0.072796926 -0.01512926
0.00899284 0.0920557 0.011891691 0.051467128 6.326665e-39

controller.SelectionNetworks.1.mlp.mlps.1.0.weight f4 [4, 45]
00000000: 9ef8 d33c adfe fd3d cac7 64bc 9e6f 88bb
00000010: b680 c9bd e2fa a43d 9347 1019 fbf4 98bd
00000020: af5c fdbd f92d 9bbd 9ef6 21bc b79a 02bd
00000030: 109b 3b80 7e0c bfb9 798a af3d 0da2 e12c
00000040: 065d 74bb dcd1 cf3d 3fe0 693d 2a64 6ebd
00000050: a2ea 37a6 5066 9cbd dd1b 2cbd fe79 f8bc
00000060: 0ea5 9d3d e252 a93d bb45 56bc fd96 05be
00000070: 1a07 29bd 9fc5 92bd 9c89 41bb e38f d53a
00000080: abb4 f13d 56b1 a5bd b6f4 9fbd ad90 13be
00000090: 3438 f4bb 7616 851e b9d3 01bd ddc2 a83d
000000a0: 3b87 d1ba 82f3 993d 07d5 f9bd a39e 753d
000000b0: 5fb7 d415 f30e c0bd 9198 e43d bdf8 573d
000000c0: b97b 823a b543 e9bd cff4 ff3d 01ad 309d
000000d0: 5e99 d7bd a853 e1bd 56ed c2bc f239 103e
000000e0: b525 d83c eea1 1216 019f 6f3b d0c6 73bd
000000f0: 305a 86bb b7ee 443d f66d ecbd cc94 82bd
00000100: dfd4 07bc b7de c33d 467c 97bd 38ed 38bd
00000110: 732d 0e3e 63fc 29bb 27da 9b3d 1e36 17bd
00000120: d1f6 e4bd 04ba ce3d 49cc d1bd c986 493d
00000130: 3852 873d d61e 0bbd 52eb 7cbc a1a9 0bbc
00000140: 5a9c 4a3c 0e20 0cbe 2a0c 7e0e e455 08be
00000150: c94a 903d 1482 6ebc 34cd fe3c 9a84 01be
00000160: 7ded e13d 93de 0380 f0da dd3d 88a4 a0bd
00000170: 4a4f b53d 18c6 febd a661 5fbd d838 a93c
00000180: 4d91 030d 6600 2a3e e46e 18bd b56a 113d
00000190: cd89 de3d 5e3b aa3d 658f 0a9e df87 fdbc
000001a0: ccad 003e c553 04ba 0dc3 1e3e 7000 d5bc
000001b0: 2fa1 19be f8c5 ff3d edd0 8f3c 999a 1abe
000001c0: 8877 2b3e 9661 d63c 4b1e 423d 7f52 64bd
000001d0: b17c 293d cac2 bdbd 97df eb3c df3f 1bbe
000001e0: b5bd 0a3e 8ce7 943d 7e61 2f3e 94be 63be
000001f0: 5fd5 debd 83ac 5abe bd79 62bd a147 8da4
00000200: 7911 d5bd e893 ccbc 7394 bfbd ba8a b4bd
00000210: 9298 413e 81f3 6dbe dd1a 238d 05a3 ce3d
00000220: cd6c 10be a839 e3bd ac70 87bc a8c6 7b3d
00000230: 0678 193e 5002 0500 0232 173c bb10 d13d
00000240: a40c e93d f633 3d3c f15a 033e 8e38 481d
00000250: d00b f83b eed4 0ebe 47b6 a1bb 8125 8ebd
00000260: 4a10 37be 76ac f33d 7820 0e3e 429e 96bc
00000270: 0586 81be a07d fc3d 5b97 333e 86d5 2f3e
00000280: ebab a83d 9b95 e93d faaf debd 9db4 a1bc
00000290: 5f54 0dbe 618b 293d 0d2b e63c d9cd dabd
000002a0: 9388 42bd 36ab 4abe 3fea 42be c28c 9f3d
000002b0: 97b5 5ba0 72dc 573c 6b98 47be 85f3 7bbb
000002c0: 4ba3 cebd e15d 763d 1ab5 81be fcad e305
0.025875386 0.12402091 -0.013963649 -0.0041636964 -0.09839003 0.080556646 7.45908e-24 -0.07468601
-0.123711936 -0.07577128 -0.009885458 -0.03188583 -5.47392e-39 -0.00036439666 0.085713334 6.412876e-12
-0.0037286892 0.101474494 0.057098623 -0.058200993 -6.3808866e-16 -0.07636702 -0.04201876 -0.030331608
0.07697497 0.08267762 -0.0130781485 -0.13045879 -0.04126654 -0.071665995 -0.0029531484 0.0016293492
0.11802038 -0.08090465 -0.07810347 -0.14410658 -0.007452989 1.4091212e-20 -0.031696055 0.08240292
-0.0015985736 0.075171486 -0.12198835 0.05996574 8.5915427e-26 -0.09377851 0.11161912 0.05272745
0.0009955085 -0.11389867 0.124978654 -2.3382847e-21 -0.10527299 -0.11002284 -0.023794811 0.14084604
0.026385168 1.1844882e-25 0.003656328 -0.059515774 -0.0041001067 0.04807922 -0.11544411 -0.06376037
-0.0082904985 0.09563964 -0.0739675 -0.045148104 0.13884525 -0.0025937788 0.07609969 -0.036916845
-0.11179889 0.100940734 -0.102440424 0.049200807 0.06607479 -0.033964954 -0.015436964 -0.008524329
0.012366379 -0.13684103 3.1313774e-30 -0.13314015 0.07045514 -0.01455738 0.031103708 -0.1264824
0.110316254 -3.55351e-40 0.10832775 -0.07843882 0.08853014 -0.12440127 -0.054536484 0.020656988
4.054239e-31 0.16601714 -0.03721513 0.035502154 0.10866127 0.08312105 -7.3353125e-21 -0.030948577
0.12566298 -0.0005047883 0.15504093 -0.026001185 -0.15002893 0.124889314 0.017555678 -0.15098037
0.16744816 0.02616958 0.04739217 -0.055742737 0.04137868 -0.09265669 0.02879314 -0.15161084
0.1354893 0.072707266 0.17127034 -0.22240669 -0.10880541 -0.2135487 -0.05529188 -6.1270347e-17
-0.10403723 -0.024972871 -0.09354486 -0.088155225 0.18905857 -0.2323742 -5.026059e-31 0.10089687
-0.14104004 -0.110949814 -0.016533218 0.06146875 0.14987192 4.60007e-40 0.009228231 0.10208269
0.11379364 0.011548033 0.1282766 2.6499018e-21 0.0075697675 -0.13948414 -0.004935059 -0.06940747
-0.17877308 0.11898129 0.13879573 -0.01838601 -0.2529756 0.123286486 0.17538206 0.17171296
0.08235916 0.11405488 -0.108734086 -0.019739443 -0.13801716 0.041392688 0.0280967 -0.106837936
-0.04749353 -0.19791874 -0.1903467 0.07790519 -1.8610105e-19 0.013175117 -0.19491737 -0.003844471
-0.100897394 0.060148124 -0.25333482 2.1410889e-35

controller.SelectionNetworks.1.mlp.mlps.1.0.bias f4 [4]
00000000: 836e c8bd 93cd abbd d2c4 4cbd 2166 0abe
-0.097867034 -0.083888195 -0.04999239 -0.13515522

controller.SelectionNetworks.2.mlp.mlps.0.0.weight f4 [45, 90]
00000000: 9e80 f6bc f0c9 de3d 2281 893b ffca 84bd
00000010: e5a8 233d 2118 9fbd c886 58bd 158e d73d
00000020: c122 2c3d 631b e2bc 8a8f a53d ca39 24bc
00000030: 5f47 1c3d 40eb 44bd 386c c73d 9459 2f3c
00000040: 18f1 79bd eab6 11bc 8a4e 3ebd df16 87bd
00000050: da0a 173c ecbd e93c 0482 193d f088 2ebd
00000060: 021c 84bd b3aa 033e c0ee c63d 836c 10bd
00000070: 4b44 ae3d 628c 283d 96cc b9bc b731 13bd
00000080: edb1 67bd 25a2 84bc cacc 92bd c2e4 a43d
00000090: 3839 bebd 8fba 81bd 3355 2a3d 1924 2abd
000000a0: f531 6bbd d164 c4bd 4dde a73d e50f d7bc
000000b0: 7539 39bc f9eb 91bc 9bfe 82bc d2af 69bd
000000c0: f990 863d 2b4a 0f3d 412b 633d dec0 efbd
000000d0: 4803 bbbd 19ba adba ce3b efbc f9f1 c43c
000000e0: 0341 2f3d 792f ad3d 3963 8ebd 6f9b 1bbe
000000f0: d6a0 173c 3ecd 9cbd 17a5 02bd 70cc 6dbd
00000100: 560e 90bc 429b c63d 7f68 22bd a05e b4bd
00000110: 0cc9 cd3d 6383 b0bc 2419 6e3d 9dfc f43d
00000120: bc01 183d c96a 95bc 386b 143e c32a 98bd
00000130: 6a59 95bc 70e3 453d 9e73 7bbd 078d ce3d
00000140: 3e52 e83c 3e5c 9b3d 3c67 22bd 323c 823d
00000150: 4f1a 07be eeb9 d4bc dcb7 0d3d b7ee 70bd
00000160: a483 0cbd cc09 04bd ce3a 813d ad7d 133d
00000170: 365e a1bb 3cbe b23d 6013 80bc 462b c63d
00000180: e2b7 b0bd a41f 13bd 696d 013d 99eb a03d
00000190: 76ed a2bd 7301 46bd 66e2 a0bd 8610 62bd
000001a0: 3540 303d c031 a43c fb23 903d 67a3 f6bc
000001b0: 1233 d73c b3b5 673d fb70 e3bd b91d 583d
000001c0: 66d9 9ebc ee0a 37bc b40a 953c 97f6 cf3d
000001d0: d089 77bd 6426 023d 8441 87bd da82 e53c
000001e0: a159 52bc 7943 c33d d38a ee3d d19f 8f3d
000001f0: 489a 9e3d a30c 59bd 29c6 0cbc a7a3 a6bb
00000200: ee82 fbbc b0e7 89bd 0c93 523d b645 543d
00000210: 80a7 083e a2da 5e3d 8acb 7abd 59e4 5cbd
00000220: 4222 853c de6a 023e 225f 9fbd 4200 bfbd
00000230: 32d5 23bc 9d2d 333e 857b 513d 2b2d 453d
00000240: 4758 08bd e339 253b bd3c 8ebc da6a 06bb
00000250: b844 abbc 93fb 963d 28ed 6d3d e168 893d
00000260: cb23 183c f8e6 8a3c 05e8 c5ba a660 80bd
00000270: b0d9 48bd 64a5 ec3d e4ba 633b 4248 613c
00000280: f1dc 5fbe 46ca 68bd 6e73 1bbd 34d3 e1bb
00000290: 4e31 26be a5d8 193e f541 4f3d ae12 043d
000002a0: 6dfd f5bc da5f cdbd d393 ea3d ff48 e13c
000002b0: a55d 043c df5d 85bd b2bd 043e d629 053d
000002c0: 5d66 14bd 9630 293d c065 19bd c0d2 573d
000002d0: 76bf b83c 4e3e 963b 174e 4f3c 4d99 3f3c
000002e0: 20bb 813c d997 0f3b 1739 4f3c 2d8a 4ebc
000002f0: b39d 263c 6a96 853b 2de7 dbba b6c1 3a3c
00000300: 3324 d93b b9b0 dd3b 2e89 cf3a e3c8 473b
00000310: 979c 463b 2698 fbb9 8897 21bc 2183 b93a
00000320: 8ec5 41bc 86fc f0bb 319b 56bd 5aa7 e5bc
00000330: 7453 e6bc 721e 87bc 654e 17bd 209a 66bc
00000340: 8ae1 4fba b763 3cbd 1f6d 593b e325 b43c
00000350: c249 3d3d bc14 be3c 1fc2 7b3d 738a 91bc
00000360: 069a 76bb 6c85 a63c edd6 a139 73db 023d
00000370: e310 c73d 78c5 db3d deb0 9e3c f582 0e3d
00000380: 62b8 f0bc 5c19 df3c 05de 2c3d b6f9 583d
00000390: 2798 88bc 6fc0 a7bc ff81 d73c 358c b03d
000003a0: f457 933d e302 3a3b 8b5d 073c 6796 cc3b
000003b0: 96ae bfbc 38ef 46bc 8707 443d 8b62 b83d
000003c0: df10 8ab9 0296 713d b170 2c3c f14d 1f3c
000003d0: 5b91 2e3d adfd 4dbd 83b1 5c3d 8199 103d
000003e0: 0cac a33c 5875 1ebd c0a7 63bd 6907 09bd
000003f0: d5e4 96bd 8b41 b33c ddf0 07bd 33cc 843d
-0.030090626 0.1087836 0.004196302 -0.06484031 0.039955992 -0.07768274 -0.052862912 0.10525147
0.04202533 -0.02760095 0.080840185 -0.010023544 0.038154002 -0.048075914 0.09737438 0.010702509
-0.06102094 -0.008893708 -0.04646162 -0.06596159 0.009218896 0.028532945 0.03747751 -0.042611063
-0.064506546 0.12858085 0.09713507 -0.035259735 0.085091196 0.041149504 -0.022680562 -0.035936084
-0.056566168 -0.016190598 -0.07167967 0.080514446 -0.09288257 -0.06334411 0.04158516 -0.04153833
-0.05742069 -0.09589542 0.081966974 -0.026252696 -0.011305203 -0.017812716 -0.015990546 -0.05705244
0.0657062 0.03498284 0.055461172 -0.11706708 -0.09131485 -0.0013254314 -0.029203322 0.024041163
0.04278661 0.0845632 -0.06952519 -0.15196012 0.009254655 -0.07656334 -0.031895723 -0.058056295
-0.01758496 0.09697582 -0.039650436 -0.08807111 0.10048112 -0.021547025 0.058129445 0.11962245
0.03711103 -0.018239396 0.14494026 -0.07430031 -0.018231113 0.048312604 -0.061389558 0.100854926
0.028359529 0.07585953 -0.039649233 0.063591376 -0.1319363 -0.025967564 0.03459917 -0.058821406
-0.03430523 -0.032235906 0.06310044 0.036008526 -0.004924561 0.087276906 -0.015634239 0.096762225
-0.08628823 -0.035918847 0.031598482 0.07857437 -0.07955448 -0.048341226 -0.07855682 -0.05519154
0.043029983 0.020043254 0.07038113 -0.030107213 0.02626947 0.056569766 -0.11105534 0.05276272
-0.019390773 -0.011172039 0.01819358 0.10154455 -0.060434163 0.031774893 -0.06604293 0.028016496
-0.012838752 0.09534354 0.11647572 0.070129044 0.077442706 -0.052990567 -0.008592167 -0.005085427
-0.03070208 -0.06733644 0.051409766 0.051824294 0.13345146 0.054407723 -0.061229266 -0.053928707
0.016251687 0.12736079 -0.07781817 -0.09326221 -0.00999956 0.17497869 0.051143188 0.04813878
-0.033287313 0.0025211505 -0.017362947 -0.0020510466 -0.020906791 0.07372203 0.058087498 0.06709457
0.009285877 0.016955838 -0.0015099054 -0.06268434 -0.049035728 0.11554983 0.0034748847 0.013750138
-0.21861626 -0.056833528 -0.03795188 -0.0068916325 -0.16229746 0.1502405 0.05060001 0.032244377
-0.03002807 -0.10028048 0.114539765 0.027500628 0.008078967 -0.06512045 0.12962988 0.0325106
-0.036230434 0.0413061 -0.037450552 0.05269122 0.022552233 0.004585064 0.012652895 0.011694265
0.015836298 0.0021910577 0.012647889 -0.012606186 0.010169434 0.0040767686 -0.001677727 0.011398723
0.0066266297 0.0067654517 0.0015833729 0.0030484728 0.0030305737 -0.0004798781 -0.009862788 0.0014153459
-0.011826886 -0.007354322 -0.052394096 -0.028033901 -0.028115965 -0.01649401 -0.036939997 -0.014074832
-0.0007930031 -0.045993533 0.0033176614 0.021990722 0.04621292 0.023203246 0.061464425 -0.017766213
-0.0037628426 0.020327292 0.00030868445 0.031947564 0.09720018 0.107310236 0.019371446 0.03479286
-0.029384796 0.027233772 0.04220392 0.052972518 -0.016674114 -0.020477502 0.026307104 0.08620492
0.0719451 0.0028383068 0.0082620485 0.0062435153 -0.023398679 -0.012141995 0.04785874 0.090031706
-0.0002633398 0.05898095 0.010524915 0.0097231725 0.04261909 -0.050290752 0.053880226 0.035302643
0.0199795 -0.038686126 -0.0555799 -0.033454333 -0.07367865 0.02188184 -0.03318869 0.064842604

controller.SelectionNetworks.2.mlp.mlps.0.0.bias f4 [45]
00000000: d1e0 5cbd 88c0 923b a496 1e3d 4778 e0bb
00000010: 2fbd 8f3d 4136 c4b6 fe8d d5bd 5138 55bc
00000020: ba26 98bc dd40 588a 081a 01bd 1c7f c53d
00000030: fb8c e3bd b32c 8d3d b800 f4bc 6895 e03d
00000040: 6fe4 323d 7076 583d eccb ad3d 9e18 8bbd
00000050: 8680 cc3d c5c4 623d 6224 6cbd acca ca3b
00000060: 2ebf 0ebb ed4d 82bd 351b 383d 95f9 2c3d
00000070: 029e ce3a 805d b03b 9a9a 6c3d 7db0 e03d
00000080: 1ade 673d ba95 c6bd ebc2 debd 3aaa eabc
00000090: 0ab4 9a3d 836b 853d 6a3b d5bd e1c6 a03d
000000a0: dc9e 82bc db0a 2fbd ad13 4a3d 62ca 1c3c
000000b0: 8cf6 413d
-0.05392534 0.004478518 0.03871788 -0.0068502757 0.07018506 -5.847571e-06 -0.104274735 -0.013013915
-0.018573154 -1.0412221e-32 -0.031518966 0.09643385 -0.11110874 0.06893291 -0.029785499 0.10965997
0.043674883 0.052847326 0.08486161 -0.06791805 0.099854514 0.055363435 -0.057651885 0.006188711
-0.0021781432 -0.063625194 0.04494782 0.042230207 0.0015763643 0.00538224 0.057764627 0.109711625
0.056608297 -0.09696527 -0.108770214 -0.028645623 0.07553871 0.06514647 -0.10411723 0.07850433
-0.01594489 -0.042734962 0.04933517 0.009569736 0.047354266
