auto_select/trained_model/model.pth (torch, 54831 bytes, 10 tensors)

mlp.mlps.0.0.weight f4 [46, 93]
000000 a2 e4 32 bb ab 6a 31 bb 7a 1a 35 bb c9 17 2e bb
       -0.002729692 -0.0027071636 -0.002763419 -0.002656447
000010 d4 8f 2f bb 30 30 29 bb a4 d1 1f bb f5 f5 28 bb
       -0.002678861 -0.0025816076 -0.002438643 -0.0025781367
000020 39 b9 2c bb a0 17 28 bb 7b 06 31 bb a1 dc 2d bb
       -0.0026355518 -0.0025648847 -0.002701192 -0.002652921
000030 be 34 2d bb 36 9a f4 ba 8e 6f 2e bb 79 80 29 bb
       -0.0026429142 -0.0018661681 -0.0026616785 -0.002586393
000040 98 76 18 bb e2 5c 29 bb ff 38 35 bb f1 8a 16 bb
       -0.0023264047 -0.0025842716 -0.002765238 -0.0022971
000050 fd 95 0c bb db 90 2d bb c3 30 25 bb 86 53 4e 3b
       -0.0021451705 -0.0026484046 -0.0025206066 0.003148289
000060 d2 b8 a7 ba fe ea 33 38 6f 9e 41 3b ed d8 32 bb
       -0.001279617 4.289578e-05 0.0029543897 -0.0027289942
000070 08 f9 06 3b fd 86 16 bb 8e 7f 51 b9 ef 0f 4a 3b
       0.0020595212 -0.0022968643 -0.00019979311 0.003083225
000080 da 7a 2d 3b ca 30 31 3b 0b 84 25 bb 31 5b 96 ad
       0.002647093 0.0027037137 -0.0025255706 -1.7093523e-11
000090 f3 1e d5 24 0f 9a d7 9b 0c 94 78 31 84 8d ae 3a
       9.2426455e-17 -3.5668324e-22 3.6172905e-09 0.0013317321
0000a0 dd c4 e6 ba de 38 b5 b9 c4 35 89 38 ec 41 cb 37
       -0.0017606277 -0.0003456538 6.542684e-05 2.4230183e-05
0000b0 c8 35 24 bb cc ec 00 3b 89 58 8b ba cd 62 0c bb
       -0.002505647 0.0019672392 -0.0010631244 -0.0021421195
0000c0 15 f6 00 bb 78 66 1e bb 7f b7 d7 39 65 d3 22 bb
       -0.0019677926 -0.0024169963 0.0004114471 -0.002484524
0000d0 9d bb 05 bb a6 94 59 3a 0b 1d e7 3a 6c d4 15 bb
       -0.0020406016 0.00083000434 0.0017632557 -0.002286221
0000e0 8d b2 fd ba 26 fb 00 bb 73 1b 0b bb 1a 61 c1 3a
       -0.001935558 -0.0019680946 -0.0021226078 0.001475367
0000f0 c6 f4 2f bb 3d 67 11 bb 2b 04 12 bb 57 63 cc ba
       -0.0026848777 -0.002218678 -0.0022280316 -0.001559357
000100 55 75 4e ba c4 39 d8 ba 9f 52 cf b9 fc 09 c2 3a
       -0.000787576 -0.0016496708 -0.00039543674 0.0014804001
000110 67 3f af 3a ac 26 c5 39 bf e6 15 3b 52 1a fa 3a
       0.0013370336 0.0003760358 0.002287313 0.001908133
000120 7d 45 1f bb ae 6d c4 ba c7 6f 49 ba 31 1c fd 39
       -0.0024302893 -0.00149863 -0.00076841976 0.00048276925
000130 42 ce 94 ba 69 8e ea ba 5b 9a 96 b9 90 36 8c ba
       -0.0011352974 -0.0017895225 -0.00028725233 -0.0010697413
000140 44 67 05 3b 65 99 22 bb 68 19 15 bb 69 4f e7 ba
       0.002035574 -0.0024810669 -0.002275074 -0.0017647567
000150 78 7b 53 ba 97 3c 59 ba 73 10 2c bb cb d8 1c b8
       -0.00080674095 -0.00082869217 -0.0026254922 -3.7395203e-05
000160 ad 96 03 3b f7 0f 24 bb 9e b6 31 bb ad 22 02 bb
       0.0020078823 -0.002503393 -0.0027116905 -0.0019857094
000170 7d 9a 4d 3b 1d 13 a3 bc df 82 a6 3d 3e c4 95 3d
       0.00313726 -0.019906575 0.081304304 0.07312821
000180 d9 00 8c 3c f4 83 67 3d 6f 4b cf bc 26 8f 00 bd
       0.017090248 0.056522325 -0.025304524 -0.031386517
000190 d8 2e 06 bd 96 e4 ad 3d f1 0d 9f 3d 05 1d b7 3d
       -0.032759517 0.08490865 0.07766331 0.08941082
0001a0 bb 16 0a 3c c5 cb 3c 3d 70 47 cd bc 6b f9 81 bc
       0.008428271 0.046092767 -0.025058478 -0.015866002
0001b0 dc 9f 9f bd 5c 3c 48 3c 02 be 53 bd 70 fc f1 3d
       -0.07794163 0.012221422 -0.051694877 0.11815727
0001c0 0f c4 a1 3d 66 f0 02 3e 6a 76 2f 3c ab 2d 5f 3d
       0.07898723 0.12787017 0.010709384 0.05448691
0001d0 8d 25 ba bd 9e 4a 50 bd ac c5 bd bd 3a d4 ee 3d
       -0.090891935 -0.05085241 -0.092662185 0.11661573
0001e0 a0 03 c1 3d 00 86 8a 3d 07 53 0c 3e 12 0c 75 3d
       0.094245195 0.0676384 0.13703547 0.059825964
0001f0 95 5b 50 3d 3f 55 fe bb 67 f6 73 bd 6b e0 f1 3d
       0.05086859 -0.007761627 -0.05956116 0.118103825
000200 35 8e 9d 3d 81 d7 63 3d fa c1 da 3d 05 87 f6 3c
       0.076931395 0.055625442 0.10681529 0.03009368
000210 fd 44 cd 3d 04 eb 2f bd 70 d2 27 bd 1b 6b 4a bc
       0.10022924 -0.042948738 -0.040972173 -0.0123546375
000220 99 f8 e6 3d 0d af 7f 3e 73 37 22 bc 0b 9e 02 bc
       0.11277885 0.2496912 -0.009900915 -0.007972251
000230 cd 42 84 bd b9 e4 0b 3d 6d 21 ac 3d a6 41 18 bd
       -0.06458054 0.034153674 0.08404813 -0.037171982
000240 91 13 2a 3c ec db 63 3d 80 57 37 bd 92 4f 02 3e
       0.010380642 0.055629656 -0.04476118 0.12725666
000250 e3 c2 ed 3d 32 79 19 bd 7b c3 a5 bd 8e f6 63 3e
       0.11609437 -0.037469096 -0.080939256 0.22262022
000260 97 c3 80 3e 4f 6f ff bb f4 66 88 3d 8d 2c 8d bd
       0.25149223 -0.0077952514 0.06660262 -0.06893263
000270 1d 9e ac bc 30 9e 2c be 99 c0 28 3d ed 3f 9d bd
       -0.021071488 -0.16857219 0.0411993 -0.076782085
000280 57 58 c2 bd 66 d9 71 bd 53 1c da bd 69 70 2f bc
       -0.09489506 -0.059045218 -0.10649934 -0.010707953
000290 22 d3 04 3d 5a 53 0c bc f4 e8 b6 bd 09 aa 04 be
       0.032427914 -0.008564794 -0.08931151 -0.12955488
0002a0 0b 03 f2 bd 75 a5 c1 bd 3f d5 26 3d 5d 36 d0 3d
       -0.11816987 -0.094553865 0.04073071 0.10166619
0002b0 f3 74 f6 3a e4 e0 28 be ce 2f 60 bd 7e e2 dc bc
       0.0018803164 -0.16492039 -0.05473309 -0.026963469
0002c0 ca d6 d7 bd c2 8c 5a ba 29 09 2a 3c c4 62 f8 3b
       -0.10539015 -0.00083370146 0.0103781605 0.007580133
0002d0 70 7c 35 3e d4 e2 31 bd ff 69 30 bd 58 66 03 be
       0.1772325 -0.04342921 -0.043069836 -0.1283201
0002e0 22 5d b9 bd 34 2a 1f be a1 3e ab bc 80 d8 b3 bc
       -0.09050967 -0.15543443 -0.020903887 -0.021953821
0002f0 25 c0 3a bd e8 77 24 3c 1d 04 52 bd 66 1c 70 3d
       -0.0455934 0.0100383535 -0.051273454 0.058620833
000300 cf 85 63 3d 34 88 e7 bc 60 b4 49 bd 4d 02 ce bd
       0.05554753 -0.028263189 -0.049244285 -0.100590326
000310 d9 bd f0 bb 91 ce ac bd 2e 26 b3 3d 4e bf 46 3d
       -0.0073468504 -0.08437837 0.087475166 0.048522286
000320 7a c4 3d bc 5e 8e 84 bc 24 52 37 bc bf 71 c1 3d
       -0.011582488 -0.016181167 -0.011189017 0.094455235
000330 a5 0a 8b bc b0 c4 94 3c 90 05 67 3d ae 38 51 3d
       -0.01697285 0.018160194 0.05640179 0.051079445
000340 09 6b 89 3b c4 09 98 3d 54 a7 96 bd fa 87 87 3c
       0.004193668 0.07423738 -0.07356134 0.01654433
000350 bd 65 a7 bd ab ad 84 3d 67 9d 8a 3d f2 c8 45 bc
       -0.08173702 0.06478437 0.06768303 -0.012071835
000360 ff 2b c6 bd fc f5 61 bd bc a2 fe 3c 01 6e 74 bd
       -0.0967636 -0.05516623 0.031083457 -0.05967522
000370 6a 2d 39 bd 0e ee 05 bd 79 8c 0f bd 0d 00 70 3d
       -0.045209326 -0.03269773 -0.035046075 0.0585938
000380 22 8a aa b0 50 9c 6a 3c c3 5a 95 bd d4 0c f2 39
       -1.2408388e-09 0.014319494 -0.07292702 0.00046167395
000390 b6 bd 95 3d 8e 54 c0 bd d2 60 b0 bd e9 15 64 3d
       0.07311575 -0.093911275 -0.08612217 0.055684958
0003a0 d5 9f 73 3d f7 91 b6 bd 15 cd fb 3c ef 79 ae bd
       0.0594786 -0.08914559 0.03073744 -0.08519351
0003b0 40 b1 d7 bd af 92 52 bd c1 8b a8 3d 1b 5e 31 bc
       -0.10531855 -0.05140942 0.08229781 -0.010825659
0003c0 07 99 81 3d 41 4a de 3c a9 f8 0c bd 21 b7 95 3d
       0.06328016 0.027135016 -0.03441683 0.0731032
0003d0 60 bb 1b 3d 23 ce 04 3d 1d 74 d1 bd 92 9e a6 bd
       0.03802049 0.03242315 -0.10227225 -0.08135714
0003e0 59 d0 8e 3d ad 93 c4 3d 7e 26 1f 3d 39 7e 0c 3d
       0.06973333 0.095984794 0.03885507 0.034300063
0003f0 aa e5 c8 bd 33 93 34 bd 01 ac 15 bc 2d 0b 57 bd
       -0.0980943 -0.044085693 -0.009135247 -0.052500892

mlp.mlps.0.0.bias f4 [46]
000000 b1 34 34 bb b2 79 0f 3c 16 f9 41 bb df cf 2b bc
       -0.0027497227 0.008757042 -0.002959793 -0.010486572
000010 0e 22 22 3d 5a ca c4 3d c8 bb 22 3d 59 29 44 bb
       0.03958326 0.09608908 0.039729863 -0.0029931872
000020 44 64 56 3b 88 9e 01 bd 0c 56 b6 3d c1 fb 8f bc
       0.0032713572 -0.031645328 0.08903131 -0.0175761
000030 d6 3f d1 bd 29 bd e2 3d f0 1f a1 3c 46 02 33 bb
       -0.10217254 0.11071236 0.01966855 -0.0027314587
000040 78 0c 93 aa 90 72 aa bd ab ef 94 bd fb 5d cd 3c
       -2.6121097e-13 -0.08322632 -0.072722755 0.025069227
000050 49 85 2a bb 67 b6 bf 3d 4e 79 07 3e c5 33 cc b9
       -0.0026019386 0.09360962 0.13229868 -0.00038948483
000060 a0 8d 21 3d 33 ce 80 3b e1 18 a1 3d 26 34 ad 3c
       0.039441705 0.003930831 0.078660734 0.02114303
000070 a4 3b 10 3d 68 2e 5d bd 03 f1 31 3d 04 e5 a7 3d
       0.035213128 -0.053999335 0.043442737 0.08197978
000080 fc 21 cd bc 79 1d 13 3b 40 2c 50 3d af 0e 5e 3d
       -0.02504062 0.0022447987 0.05082345 0.054213222
000090 a4 fb 08 3e 16 5b 61 3d b7 f5 a2 bd 15 17 d8 bd
       0.13377243 0.055018507 -0.07957023 -0.105512775
0000a0 09 99 4f bc 85 ba b8 3d 71 46 2e 3d 51 e3 8a bc
       -0.012670764 0.09019951 0.042547647 -0.016954096
0000b0 40 4c 86 b0 b5 45 d1 3d
       -9.771455e-10 0.10218374

mlp.mlps.1.0.weight f4 [5, 46]
000000 a2 fc 39 bb 2f 9a 0f be db 2a d2 3d 23 fa 3a be
       -0.002837934 -0.1402366 0.1026208 -0.18259482
000010 57 8b 9f 3b a4 62 21 3e 75 31 3b 3e 59 9f 3c 3b
       0.0048689055 0.15760285 0.18280585 0.0028781502
000020 f5 49 ca bd 17 50 8b bd d9 be d5 3d 8b 1c b3 bd
       -0.098773874 -0.06802385 0.10436792 -0.087456785
000030 f6 c8 dd bb 63 89 70 bd 85 7b 94 bd 4d 9b d1 ba
       -0.006768341 -0.058724772 -0.07250122 -0.0015991718
000040 9d 70 ca 2c 0d b1 0e bd 6d 81 27 bd 09 ef 6a 3e
       5.753688e-12 -0.034836818 -0.040894914 0.22942747
000050 8d af 37 be 8e 25 1a 3e 07 38 5b 3d 4a 5e d8 3b
       -0.17938061 0.15053388 0.05352023 0.006603037
000060 52 5d 2c be 27 4a b6 bd 5e dd 41 bd 44 76 be bc
       -0.16832474 -0.08900862 -0.047330253 -0.023249753
000070 4e c4 12 3e 1b 92 4a 3e 41 5d 00 bd 2d 52 83 3d
       0.14332697 0.19782297 -0.031338934 0.06412158
000080 e2 66 15 be 96 23 71 3d 96 02 4f 3e f9 e7 cf 3d
       -0.14590028 0.058871828 0.2021583 0.10151667
000090 be 07 fd 3d d0 9a fb 3d f5 28 ce bd 5b 53 a5 3c
       0.12354992 0.122853875 -0.10066406 0.020181349
0000a0 12 03 70 3e 01 9a 37 3d c3 c2 71 be 92 33 46 b9
       0.23438671 0.044824604 -0.23609452 -0.00018901963
0000b0 37 9f 50 b8 12 11 19 3e ea bc 03 a5 d8 f8 43 bb
       -4.9739345e-05 0.14947918 -1.1426445e-16 -0.002990296
0000c0 24 5b bc 2f 46 e6 7b bb 05 c5 37 bb d3 f7 66 af
       3.426176e-10 -0.0038436814 -0.0028041017 -2.1006423e-10
0000d0 2d 8e 83 ba e2 c2 0c 2a f8 42 dc a5 a0 8c f6 b5
       -0.0010036879 1.2502111e-13 -3.8209296e-16 -1.8369356e-06
0000e0 37 b8 96 3b 2f 79 92 bb 6e 82 6f 21 c6 c2 ba bb
       0.004599597 -0.0044700126 8.114897e-19 -0.0056994883
0000f0 73 89 5a b6 0a e6 b4 ad b9 b2 bb 37 ff e6 44 bb
       -3.2564537e-06 -2.0565789e-11 2.2375361e-05 -0.003004491
000100 60 b9 06 b4 dc ef 44 bb b4 f4 14 37 7c 1a bd 2e
       -1.2547162e-07 -0.0030050194 8.878462e-06 8.5994295e-11
000110 73 39 71 bb b1 24 df ae 71 8b 43 bb 71 25 c5 b6
       -0.0036807924 -1.01473836e-10 -0.0029837752 -5.8754163e-06
000120 aa ac ac a1 93 43 6e b7 7f 29 e7 b6 fa 88 3f bb
       -1.1700877e-18 -1.4201639e-05 -6.8891673e-06 -0.0029225932
000130 88 4b 30 ba 34 e3 94 a1 e7 6f 32 b3 18 6d 98 bb
       -0.0006725122 -1.008901e-18 -4.154563e-08 -0.004651677
000140 c1 a6 3c bb 88 13 17 bc a1 d2 7d bb 2f 57 58 b3
       -0.0028785917 -0.009220965 -0.003873028 -5.0370712e-08
000150 9f 47 01 b6 b6 9b 03 22 f0 6b 45 bb 7f 5c 46 b7
       -1.9264187e-06 1.7836243e-18 -0.003012415 -1.1823256e-05
000160 97 9c eb a1 de 50 45 bb 82 fa 14 b4 2c 11 45 bb
       -1.5965668e-18 -0.0030108015 -1.3874708e-07 -0.003007005
000170 e0 fa 90 bb 75 36 46 bb b8 49 ac bd da 2f 14 bc
       -0.004424438 -0.0030244861 -0.08412498 -0.009044612
000180 89 e2 a3 bd e9 41 16 be d9 03 89 3d 38 bf 35 3b
       -0.080021925 -0.1467358 0.06690187 0.0027732383
000190 73 dc 1a be 19 50 15 be a3 77 2e be a4 5e 61 be
       -0.15123157 -0.14581336 -0.17037825 -0.22008759
0001a0 41 bb d0 bd c6 b5 50 3e f6 e6 d1 3d 98 63 41 3b
       -0.10191966 0.20381841 0.102491304 0.0029508825
0001b0 1b fd 87 37 82 6b 8f 3d 8c e7 07 be 7a 01 22 be
       1.6211116e-05 0.07002927 -0.13271922 -0.15820876
0001c0 79 48 b5 bd 19 40 1f be 79 fe c9 3d f2 98 9f 3a
       -0.08851714 -0.15551795 0.0986299 0.0012176319
0001d0 f8 8a 70 3d 88 fa e9 3d 11 2a 4f be 52 ee ff 3d
       0.05872628 0.11424738 -0.20230891 0.12496628
0001e0 83 74 0d 3e c8 02 50 be bd ef 59 3d 37 bf bc 3d
       0.13813977 -0.20313561 0.053207148 0.09216159
0001f0 c4 b6 c8 3c 5e 5e f0 3d 56 c3 6e be 7e e8 c9 3c
       0.024501212 0.11736749 -0.23316702 0.024646994
000200 79 74 43 3d 45 6a 4e be d2 d0 d9 bd e7 c0 9e bd
       0.0477185 -0.20157726 -0.106355324 -0.07751637
000210 27 67 de bd 2a 01 af 3d a3 20 03 bd b0 0d 29 3e
       -0.108595185 0.08545144 -0.032013547 0.16509128
000220 cf f8 b9 a6 c6 08 61 be 1c a9 08 9a 92 bd 18 be
       -1.2904393e-15 -0.21976003 -2.8260746e-23 -0.14916065
000230 6d 0c 21 bb b8 0c 03 be 24 6d 0b 3d d9 ca a0 3d
       -0.0024574057 -0.1279782 0.03403963 0.0785119
000240 0d e6 15 be b8 d9 9a b0 38 29 96 33 09 62 1a 3d
       -0.14638539 -1.1266854e-09 6.992417e-08 0.03769115
000250 89 29 57 bd 21 57 43 bc b5 c0 ef 3d a8 9d e5 bd
       -0.052529845 -0.011922629 0.11706678 -0.11211711
000260 70 56 14 be c8 50 fd 30 6a ba 3f b4 eb 5a ba bc
       -0.14486098 1.8431132e-09 -1.7856078e-07 -0.022748431
000270 eb ad 13 bc cd 13 12 be 9b 33 cc bd 32 a4 37 bd
       -0.009013633 -0.14265366 -0.099707805 -0.044834323
000280 64 75 0e bc 30 c0 00 34 2e 8b d0 3d 15 6c 8f 3d
       -0.00869498 1.1990846e-07 0.101827964 0.07003037
000290 69 47 87 bd 77 7c 0b be 10 d2 b3 bd f9 04 19 bd
       -0.06605417 -0.13621698 -0.087803006 -0.037358258
0002a0 33 eb 81 bd e1 e0 b3 bd a9 a3 fb bd b0 b6 75 bb
       -0.06343689 -0.087831266 -0.12287075 -0.0037492923
0002b0 6a da 94 bd 00 9e 46 bc e3 e9 59 bb 01 00 a0 3d
       -0.07268222 -0.012122631 -0.003325098 0.07812501
0002c0 5d 57 d2 3d 68 44 1a bd 90 42 bc 3d 7c f6 85 bb
       0.102705695 -0.037662894 0.09192383 -0.004088221
0002d0 c0 d0 1e 3c 99 b0 75 3d ea 1f 45 28 43 b9 08 3c
       0.009693325 0.05998287 1.0942617e-14 0.008344951
0002e0 51 95 02 b7 17 12 10 bd 13 80 d3 3d a2 4f 01 bd
       -7.783369e-06 -0.0351735 0.103271626 -0.031570084
0002f0 75 06 b4 bd c6 f0 70 bd 8d 73 e8 bd 83 13 9f b5
       -0.08790294 -0.05882337 -0.113501646 -1.1852102e-06
000300 18 eb 50 b8 4b 6c 41 3c 48 6e 86 3d 79 5a d2 bc
       -4.9810013e-05 0.011805604 0.06564003 -0.025677906
000310 f1 c2 0d 3e b0 1b a8 bd 7c 5a 6a 3d 25 ef 4d 33
       0.13843895 -0.08208406 0.0572152 4.7947783e-08
000320 4c 64 fc 2d 9d 83 2e 3c e0 d2 81 3c 37 1c 1a be
       2.8693624e-11 0.010651496 0.015847623 -0.15049826
000330 46 6c ee bc 12 d1 12 be 7e 99 47 3d fd 86 cc b3
       -0.029104363 -0.14337566 0.048730366 -9.5240445e-08
000340 1f 75 0b 3d 4a ae 2e bd 97 75 20 bd 65 67 9b 3d
       0.034047242 -0.042646684 -0.039174642 0.0758808
000350 c1 58 81 3d 3d 24 e3 3c 2c 90 12 be 7e 1c 14 be
       0.063157566 0.02772724 -0.1431281 -0.14463994
000360 52 d6 96 bd 81 3d 93 bd 9c 1b e0 bd 7b b4 b0 bc
       -0.07365097 -0.07189465 -0.10942766 -0.021570435
000370 83 33 f8 bd ce 25 c4 3d 9f 4d b6 bd ac b6 06 be
       -0.121192 0.09577523 -0.08901524 -0.13155621
000380 24 01 1c 3d 7b a5 75 3c b3 ec 42 bd ae 0b 0f be
       0.038087025 0.014993067 -0.047589015 -0.13969299
000390 a0 91 49 38 d2 70 20 be
       4.805776e-05 -0.15668038

mlp.mlps.1.0.bias f4 [5]
000000 c5 17 ed 3d e7 43 4a bb 4f 87 1d bd bc 3b 25 3d
       0.11576799 -0.0030863227 -0.03845912 0.04034017
000010 86 bf 4f 3b
       0.003169985

controller.mlp.mlps.0.0.weight f4 [64, 93]
000000 90 19 e4 ba 33 a7 03 3d bf 9b b1 3d 55 7e a7 bd
       -0.0017402638 0.032141875 0.08672284 -0.08178393
000010 e4 68 43 bd 5a 87 c8 3d e7 05 22 bc a0 60 18 3d
       -0.047707453 0.09791441 -0.009889103 0.037201524
000020 0e 96 cc 3c 6a de 4d ba f9 5b 13 bd a0 1d 99 bd
       0.024973895 -0.00078532717 -0.035976384 -0.07476354
000030 24 8c fe 3d 84 3e 09 be 07 83 8c bd 5f 83 93 3d
       0.124290735 -0.13402754 -0.06860929 0.072027914
000040 57 fe 87 3b 69 78 cc bd a4 16 00 3d 93 8d 6e 3c
       0.0041501927 -0.09983904 0.03127159 0.014560121
000050 f9 3d 4e 3c 96 88 ba bb 26 4b 64 bd 10 6d 02 be
       0.012588018 -0.005692552 -0.05573573 -0.12736917
000060 47 4c 83 3c 31 fb 8f bd 71 9b e3 bc ad 20 b9 bd
       0.016027583 -0.07030333 -0.027784081 -0.090394355
000070 a3 45 0f bd 33 3d e7 bd 9f 41 3f 3c ee d0 fc bd
       -0.03497852 -0.1129097 0.01167336 -0.12344538
000080 21 6a 17 bd 77 bf 51 3e d5 df 85 bd 8c f5 9a 3c
       -0.036966447 0.20483194 -0.06536833 0.018915914
000090 f3 84 ae b2 d7 0b 1b 29 f0 30 d8 30 ee 07 e0 3d
       -2.0316724e-08 3.4427183e-14 1.5729977e-09 0.109390125
0000a0 00 84 01 3b 26 ec 81 bd 80 1b 91 3b 64 af 05 bd
       0.0019762516 -0.0634387 0.004428327 -0.03263797
0000b0 f6 74 a5 bd 2f 6c c3 bd a4 e7 6c bb 18 c6 c1 3c
       -0.08078949 -0.09542119 -0.003614881 0.023654029
0000c0 fe 68 a7 3c 21 a5 99 bd 62 93 9f bd fc ec 7e bd
       0.020435806 -0.07502199 -0.07791783 -0.062237725
0000d0 80 a7 ce bd 1d 04 ff 3d 82 31 6a bd 76 64 73 bc
       -0.10090542 0.124519564 -0.05717612 -0.014855495
0000e0 11 7c 45 bc 76 8c 61 3d f2 e3 4c bd 06 e6 23 be
       -0.0120535055 0.055065595 -0.050022073 -0.16005716
0000f0 39 68 f8 bc c2 52 0c bd c3 52 df bc aa 06 ef bc
       -0.030323135 -0.03425861 -0.027261144 -0.029177982
000100 90 67 5b 3d bf bf 0a 3d 7b c2 18 3e b2 37 f2 3c
       0.05356556 0.03387427 0.14917938 0.029567573
000110 5b cc 6d bc b7 25 50 3d 6b 79 4b 39 ff 95 90 bd
       -0.014514054 0.050817218 0.0001940482 -0.070598595
000120 c0 e6 ae bc bd a2 90 3d 8d 29 3e 3d ae 4b d1 bd
       -0.021350265 0.0706229 0.046426345 -0.10219513
000130 a5 95 50 3d e3 14 53 3e d9 da 98 bd f3 f0 7c bd
       0.050923962 0.20613436 -0.07463617 -0.061753225
000140 43 27 62 3d c1 ec c1 bc 06 72 bf 3d 79 70 5e bc
       0.055213224 -0.023672463 0.0934792 -0.01357662
000150 91 a5 a2 bd b4 ad e3 bc 63 c8 e0 bc ab 9d 0d 3d
       -0.079417355 -0.027792789 -0.027439302 0.034574192
000160 7d 88 c5 3d d9 17 77 3c 09 48 b3 3d 85 93 37 3d
       0.09645174 0.015081369 0.08753974 0.04481842
000170 c6 b8 9b bd a8 83 aa bd 95 4d 9c bd b7 bc 76 3d
       -0.07603602 -0.08325893 -0.07631985 0.060238566
000180 f9 09 3b 3a 35 ad bd bc 94 50 b3 3d fe 18 f0 3b
       0.000713497 -0.02315388 0.087556034 0.007327198
000190 fb 23 95 ba 47 be 89 3d 9c 3d 05 3d e1 9c 8a bd
       -0.0011378521 0.06725746 0.03252946 -0.067682035
0001a0 da 3c 20 bd 9b 56 16 bd 87 f2 7d bc 64 7e a5 3d
       -0.039120533 -0.036703687 -0.015499718 0.08080748
0001b0 54 31 d3 3d 9a 32 c8 3d d6 be 8c 3d 53 ec c8 3d
       0.10312143 0.097752765 0.068723366 0.098107
0001c0 b5 5a c4 3c 2e b7 bf bd 80 50 0c bc c6 7c e3 bc
       0.023969034 -0.09361111 -0.008564115 -0.027769458
0001d0 e2 07 d9 3d 11 e7 fe 3b 8c 91 39 3c 8c b5 5e 3c
       0.10597207 0.00777901 0.011326205 0.013593089
0001e0 5c aa 91 3d e5 f3 9a bd ea 7f d9 bc 04 16 04 bc
       0.071125716 -0.075660504 -0.026550252 -0.00806189
0001f0 ad 3b 94 bc 0a a3 8d 3d bc df a8 3d 61 7a 45 3c
       -0.018094862 0.06915863 0.08245799 0.012053103
000200 5b 0c f4 bd 7d b2 b8 3d 8f 5f ab 3d 5f 53 f7 3c
       -0.11916419 0.09018419 0.08367836 0.030191122
000210 89 d9 a9 bd 25 ed 0f 3e 73 57 d0 3d 0f d6 f9 3d
       -0.08293445 0.14055307 0.101729296 0.121990316
000220 6c aa b1 bd 23 38 8c bd 5a 9f 51 3c 9f 0b 86 3d
       -0.086750835 -0.06846645 0.01279434 0.06545185
000230 b6 6c 25 3e 8c 34 cf 3d bc 90 03 bd 84 ef 63 3b
       0.16154751 0.101174444 -0.03212045 0.0034780214
000240 5e 92 0e 3d 76 50 ec 3d c5 5c 5e 3d 9b 61 c6 3d
       0.034807555 0.11538784 0.05428769 0.096865855
000250 e6 de fb 3d 09 44 6f 3d 33 a5 1e bc 47 c4 aa bd
       0.12298374 0.058414493 -0.009682941 -0.08338218
000260 91 81 b3 bd 57 aa 9e 3d 97 3d 31 bd a7 d8 79 3d
       -0.08764947 0.077473335 -0.043271627 0.06099763
000270 bc 83 02 be 80 66 05 be 93 7a 8d bc d5 f3 eb bd
       -0.12745565 -0.13027382 -0.017270362 -0.11521117
000280 d0 db 42 bd 3e d5 9c bd d8 5b 55 bc 17 48 c9 3d
       -0.04757291 -0.0765786 -0.013022386 0.09828203
000290 75 06 e6 39 1e ed 68 bc 85 76 91 3d fe 46 32 3d
       0.0004387383 -0.014216689 0.07102684 0.043524735
0002a0 ec 4c 86 3d 89 98 a1 3d a9 e5 56 3c e6 bf 94 bb
       0.065576404 0.07890422 0.013116279 -0.0045394776
0002b0 6f 97 c9 bd 42 56 83 3d 75 fb 2f bc 1a 17 e4 3d
       -0.09843337 0.06412937 -0.010741104 0.11137219
0002c0 bf d0 cb 3c 49 9a 93 3d 29 c9 a6 3d f4 75 0d bd
       0.024879811 0.07207162 0.08143837 -0.034536317
0002d0 31 02 17 3d 6c 99 87 3d 1c 61 2b bd 1f 52 03 3e
       0.036867324 0.0662106 -0.041840658 0.12824295
0002e0 fa 90 9d bd 35 6f a4 bd 72 65 49 bd 84 60 7f bc
       -0.07693668 -0.080290236 -0.04916901 -0.015586976
0002f0 38 66 67 3d e3 2c c7 bc 7c 64 4d 3d 89 de cb bd
       0.056493968 -0.024313396 0.050144657 -0.099545546
000300 41 4d b6 3c 1c 19 2a 3d ce 53 a4 3d 23 19 fe bc
       0.022253634 0.041527852 0.08023797 -0.031017845
000310 7b e4 95 bd 69 e9 88 bd ed 89 7f 3d 79 2c b1 bd
       -0.0731897 -0.066851445 0.062387396 -0.086510606
000320 2c 57 fa 3c 81 02 89 bc 44 45 aa 3c 5c f4 4e bd
       0.030559145 -0.016724827 0.020784982 -0.050526008
000330 5b 08 fd 3c 2c 05 28 3d 08 81 27 bd 1d f8 96 bd
       0.030887773 0.041020557 -0.04089454 -0.073715426
000340 2c 4d ee 3b 3a 75 af bd 55 54 5b bc 1c f7 2a 1c
       0.007272383 -0.08567281 -0.013386806 5.6567663e-22
000350 6e 1d 0a 3d 05 c9 90 a7 a5 42 8a 3d f1 7f 20 2c
       0.033719473 -4.0185975e-15 0.06750993 2.280839e-12
000360 7b 69 b1 bd 98 81 1a bd 42 e9 37 a2 e2 71 f4 bc
       -0.08662697 -0.037721246 -2.492461e-18 -0.02983946
000370 e3 2b 2d 9d 9f 30 29 aa aa 1c bb 22 42 70 ed af
       -2.2919048e-21 -1.5027084e-13 5.07168e-18 -4.3189813e-10
000380 9f 02 12 33 b7 81 13 3d d7 b4 65 bb 06 25 7f 3d
       3.3995658e-08 0.036012378 -0.0035050416 0.062291168
000390 e7 3e da b1 4b 58 29 bb b0 43 83 29 94 10 90 ad
       -6.351786e-09 -0.002583998 5.8293106e-14 -1.6378267e-11
0003a0 9b 02 d4 aa 02 53 b7 3c de b8 62 bd f9 82 a0 3d
       -3.7660573e-13 0.022378448 -0.055352084 0.07837481
0003b0 a7 5b ad 3b 9c 01 be 3d 16 21 ab b9 9e 79 78 bd
       0.005290467 0.09277651 -0.00032640313 -0.06066286
0003c0 de 1b f4 b3 e5 e4 9e bd 3e dd a1 bd 84 bf 2a 3d
       -1.13672044e-07 -0.07758502 -0.07903527 0.04168655
0003d0 33 36 13 bc 65 10 1d ad 8d ed c5 bd 7e 79 0f bc
       -0.00898509 -8.928057e-12 -0.0966445 -0.008756993
0003e0 96 0c 15 bd d1 2c 3a 3d e9 8a 9f 3c 25 34 51 bd
       -0.036388956 0.045452897 0.019475417 -0.05107512
0003f0 a4 93 96 bd 84 32 52 bd a7 2b c5 3b a4 e9 90 bd
       -0.07352379 -0.051317707 0.0060171667 -0.070758134

controller.mlp.mlps.0.0.bias f4 [64]
000000 14 19 15 3d 81 b2 08 3d 98 61 d1 bc f9 06 ba 3d
       0.03640087 0.03337336 -0.025559232 0.09083361
000010 14 68 f4 3c 96 ad fd bc 05 85 17 bd 72 a9 c7 3c
       0.029834785 -0.030966561 -0.03699209 0.02437279
000020 03 9c 77 3d 66 06 9d 3d 6d 42 8e 3d 8a 2e 43 3d
       0.06045152 0.07667236 0.069462635 0.047651805
000030 da 43 54 bd ab c7 22 3d a7 be 38 bd 62 6c a4 3b
       -0.05182252 0.0397412 -0.045103695 0.005017803
000040 25 6d bd bd 54 4d 6e 3c e9 0c be bd f6 71 89 3d
       -0.09249333 0.014544804 -0.09279806 0.067111894
000050 96 6b ad 3d 6e 67 82 bd 93 dc 6e 3d 3f 2b 3c 3c
       0.08467786 -0.06367384 0.058315825 0.01148492
000060 d5 96 3a 3c fd de c8 af 81 ba 0d bd af 8d 46 bd
       0.0113885 -3.653823e-10 -0.034601692 -0.048474964
000070 55 b8 d0 3b 8c d3 20 bd cf 73 fe 30 aa b1 93 bc
       0.0063696303 -0.039264247 1.8513847e-09 -0.018029053
000080 b0 0a a3 3c b0 99 a9 3d d6 38 38 b2 5e d7 90 b1
       0.019902557 0.08281267 -1.0723133e-08 -4.215436e-09
000090 90 93 3d bd 59 64 40 30 da 4e f1 bb 3b 6e a1 3d
       -0.046283305 6.9991796e-10 -0.007364136 0.07882353
0000a0 4a 0b 8c 3d 1f 36 b7 bc 11 ec 9c 3d 0a 9d f3 bc
       0.06838091 -0.022364674 0.076622136 -0.029737968
0000b0 81 3a d7 bc 85 35 de 3d 1b a2 44 bd a2 f5 cc a8
       -0.026273014 0.10850052 -0.04800616 -2.2755076e-14
0000c0 e8 58 72 bd 02 f6 9e bd 67 0e db bd 95 97 92 bd
       -0.05916682 -0.07761766 -0.106961064 -0.07157818
0000d0 06 18 0e 3c 29 ac 30 bd 85 bd 0a ab 88 39 9b bd
       0.00867272 -0.043132935 -4.929046e-13 -0.075793326
0000e0 af 65 49 99 ef 77 05 9c 19 25 4d aa b5 42 76 b5
       -1.0411991e-23 -4.416102e-22 -1.8220528e-13 -9.1739213e-07
0000f0 84 34 d4 30 c2 86 77 b9 c4 27 b0 bd 18 e7 42 bd
       1.5439956e-09 -0.00023605957 -0.08601335 -0.04758367

controller.mlp.mlps.1.0.weight f4 [32, 64]
000000 63 44 02 be 56 6f 96 bd 78 b1 b2 3d a6 05 ea bd
       -0.127214 -0.073454544 0.08725256 -0.114268586
000010 73 ce 34 3d 9f 97 d1 bd be de ea 29 2e cd fe bd
       0.044142198 -0.102339976 1.0430327e-13 -0.12441479
000020 57 4c eb 3c cb 65 a3 3d be 87 f1 bd 66 cf 47 bd
       0.028722925 0.079784 -0.11793469 -0.048781775
000030 e9 3c 82 bd 5c ab 85 bc df 48 ed bd 07 f7 af bd
       -0.06359274 -0.016317062 -0.11586165 -0.085920386
000040 d2 01 5e 3d 41 b8 d0 3d 63 2a ff bc a4 4e d8 3d
       0.054200955 0.10191394 -0.031148141 0.105618745
000050 38 87 8d bd a5 f8 d1 bd 12 4f 92 3d df b6 5b 3d
       -0.069105566 -0.10252503 0.07143988 0.053641196
000060 80 61 97 3d 94 a2 d1 31 84 4d 9c 3d 35 fe cb bd
       0.073916435 6.1011836e-09 0.076319724 -0.099605955
000070 8b 8c a3 3a 35 0b a3 3d fd 24 84 b0 96 86 2f bd
       0.0012477798 0.07961122 -9.614777e-10 -0.04285296
000080 65 59 17 bc ae bb 1c bd c6 ec 05 34 8d b8 7a b6
       -0.009237622 -0.038264923 1.2472728e-07 -3.7360326e-06
000090 4e 11 25 3d ec e5 0b 1a 72 82 89 bd 59 12 de bc
       0.040299706 2.8930256e-23 -0.067143336 -0.027108358
0000a0 4e 05 44 3d bd ca 46 bd 12 12 ed 3c fd 2b 88 3d
       0.04785662 -0.04853319 0.02893928 0.06649015
0000b0 9b 7c 69 bd 8a 8a 81 3d a9 4b a0 3d 98 13 34 b2
       -0.0570036 0.06325252 0.07826931 -1.0481834e-08
0000c0 ff db c5 bd 66 4f 2e bd d4 a3 4d bd c9 07 a4 bd
       -0.096611015 -0.04255619 -0.050205067 -0.080092974
0000d0 51 0d 33 bc c6 13 18 be a5 2f 02 a6 aa ad bf 3d
       -0.010928468 -0.14851293 -4.516738e-16 0.09359296
0000e0 6e a7 ed ae 82 c0 d3 2a fa 4b a1 1f 39 3f b6 b0
       -1.0807254e-10 3.7614708e-13 6.8311845e-20 -1.3260212e-09
0000f0 b8 d8 0f b5 d2 32 b1 34 6b af 66 3d f4 00 9f 3b
       -5.358702e-07 3.3005796e-07 0.056319635 0.0048524085
000100 1b bb 3f be 08 8a d3 bd 15 d0 a3 3d de a6 f2 bd
       -0.18723719 -0.10329062 0.07998673 -0.11848234
000110 a6 e1 8a 3d 2b cc 3b 3e 82 ee 8c 3a 7a ef 96 bd
       0.0678132 0.18339603 0.0010752233 -0.07369895
000120 d2 12 18 3d 8e 44 bf 3d 8d 09 ba 3d 3a 95 dc 3d
       0.037127323 0.09339248 0.09083853 0.1077065
000130 a7 e3 97 3d ca 6b 40 bd 67 61 f5 3d 36 fd 12 be
       0.07416468 -0.046977796 0.11981469 -0.14354405
000140 ef 51 35 3d 0d bc c3 3d 41 fc 6b 3d be 4a 31 bb
       0.04426759 0.09557352 0.057613615 -0.0027052606
000150 48 5f 33 bd 38 ac d6 3d 65 7e ad bc 90 ca 7a 3d
       -0.04379204 0.10482067 -0.021178434 0.061228335
000160 a5 69 9b bd 5a bc f8 b5 93 e4 05 be 8b 3d fe bc
       -0.075885095 -1.8532257e-06 -0.13075475 -0.031035205
000170 0f cd e8 3d 74 39 94 3c 23 62 67 ac 70 e4 00 3d
       0.11367237 0.018093802 -3.2881551e-12 0.031467855
000180 6d 42 17 be 93 54 1a be e0 e9 24 27 c7 1e 05 b3
       -0.14771433 -0.15071325 2.2886356e-15 -3.0994467e-08
000190 0b c0 ba 3c e4 42 18 36 12 d8 22 bd 52 18 3f be
       0.022796651 2.26887e-06 -0.039756842 -0.18661621
0001a0 49 03 b4 3d 8e 5c c6 3d 21 a3 aa 3d 87 23 1e 3e
       0.08789689 0.09685622 0.083318956 0.1544324
0001b0 0a c4 9b 3d 64 76 07 be ae 17 13 be ff 24 14 b5
       0.07605751 -0.13228756 -0.14364502 -5.518813e-07
0001c0 29 8b 2c 3e dd 8c f3 3d 9b 15 28 bd 1b 7e 2f 3d
       0.1684996 0.11892102 -0.04103623 0.042844873
0001d0 86 60 98 bd e2 2b c2 3d 01 ff 8b 35 7b b7 00 bc
       -0.074402854 0.09481026 1.0430523e-06 -0.007856245
0001e0 c0 54 b9 24 5b b8 68 17 f8 3c 96 ad b6 8f 87 1c
       8.037453e-17 7.519593e-25 -1.7080101e-11 8.970699e-22
0001f0 04 57 b3 2a 1b 02 8b b5 8f cd d4 3d f1 91 99 3d
       3.1857167e-13 -1.035692e-06 0.1039077 0.07498539
000200 50 70 b6 3d 81 d0 07 3e 23 b3 84 3c e3 b9 a4 3a
       0.08908141 0.13263132 0.0161987 0.0012567606
000210 9b eb 67 bd ec 62 df bd f5 83 f7 3a 93 91 0e 3d
       -0.056621175 -0.1090754 0.0018883931 0.0348068
000220 56 07 f5 34 ab cb 15 3e 95 a5 8e bc 53 d8 3d bd
       4.5640144e-07 0.14628474 -0.01741294 -0.04634888
000230 e7 c5 78 ae 69 7e b0 3d 1a a4 81 3d ae 90 f5 3d
       -5.6564444e-11 0.08617861 0.06330128 0.11990486
000240 5e 0c 03 bd 85 6a e3 3d fd 87 36 3c 28 d4 c1 bc
       -0.031994216 0.11104301 0.011140821 -0.023660734
000250 93 2c 84 3d ca 23 09 3e 95 67 a5 bd 5d 04 cb 3d
       0.06453814 0.13392559 -0.08076397 0.099129416
000260 70 77 d7 bc 5e 62 4f 1b a1 6a 01 3e 67 d9 85 3d
       -0.02630207 1.7154423e-22 0.12638332 0.06535607
000270 5b 44 35 3c 56 9b 01 be 4e d6 8a af 1b fc 24 3d
       0.0110636605 -0.12656912 -2.5254326e-10 0.04027949
000280 30 e2 ad 3d 1e 23 db 3d f5 11 90 24 c5 03 0c 36
       0.084904075 0.107000574 6.2480466e-17 2.086382e-06
000290 18 cd d5 bd 2e b7 ce 2b 4e 93 ea bc 79 94 40 3d
       -0.10439509 1.4688023e-12 -0.028634693 0.047016595
0002a0 e4 e7 8d bd d3 d6 18 be e5 28 8e 3b 29 0c a9 bd
       -0.06928995 -0.14925699 0.004338371 -0.082542725
0002b0 bb 15 66 bd c5 b3 0f 3e 00 e4 15 3e 24 2b 71 2a
       -0.056173068 0.1403342 0.14637756 2.1420067e-13
0002c0 51 4f 02 be 99 4c e4 bc 89 91 0e be 6c d0 e9 bc
       -0.1272557 -0.027868556 -0.13922705 -0.028541766
0002d0 b1 e0 74 3b 46 64 0e 3e c2 9c dd 35 46 27 db b9
       0.0037365372 0.13905439 1.6511406e-06 -0.00041800196
0002e0 53 7d ce b2 78 9a a2 27 1a 6a 82 36 e6 33 1b 32
       -2.4038547e-08 4.5131508e-15 3.8866538e-06 9.033988e-09
0002f0 6f cd 65 33 46 94 2d b4 2c 08 5d bc 99 5a b0 bd
       5.3505058e-08 -1.6165822e-07 -0.013490718 -0.0861103
000300 bf 46 ad bd 00 67 14 3d 43 d2 b2 3c 6f e9 41 bb
       -0.08460759 0.03623104 0.021828776 -0.00295886
000310 02 f7 8b bd 84 f1 a5 3d 92 2a 30 2e 9f 63 c6 bc
       -0.068342224 0.08102706 4.0055577e-11 -0.024217425
000320 1b 7b c1 bc a7 32 b2 bc 1b 27 e8 bc 73 d5 8b 3d
       -0.023618272 -0.021752669 -0.02833896 0.068278216
000330 bd 8e 19 3d cf a0 dc bd ac 99 a3 bd 01 98 c3 bd
       0.03748964 -0.10772859 -0.07988295 -0.09550477
000340 d7 54 14 3d b7 b5 9e 3b f0 b2 63 3c 37 df e9 bd
       0.036213722 0.0048434394 0.0138976425 -0.11419528
000350 c2 51 92 bd 59 3c d8 3c 2a 31 8f bd df e8 c9 bd
       -0.071445 0.026395964 -0.06991799 -0.0985887
000360 64 d5 24 3d 05 84 93 b3 29 5d dc bd 75 d9 fb 3d
       0.040242568 -6.869235e-08 -0.107599564 0.12297336
000370 ad ff ea 3d 95 5d d8 bc 90 23 ba ac 39 4d 35 bc
       0.114745475 -0.02641181 -5.290386e-12 -0.011065775
000380 fa d4 94 bc a0 3e 2e bc 86 69 a5 2d 85 23 e6 b3
       -0.018167961 -0.010635048 1.880519e-11 -1.07166706e-07
000390 f5 94 8f 3d 0f 9f 0c b1 4e c0 a8 3d b9 52 d1 3d
       0.07010833 -2.0463096e-09 0.08239804 0.10220856
0003a0 85 1d d2 bd e5 ca 66 bd e8 c9 05 bc 72 12 1b 3d
       -0.10259537 -0.05634584 -0.008165814 0.037859388
0003b0 31 86 0d 3c d4 32 9b bc f5 82 d9 bd 04 42 e7 a2
       0.008637951 -0.018945135 -0.10620681 -6.2682572e-18
0003c0 3a 74 70 bd 9f 39 ba bd 5f 21 0e bd 96 bf 20 3b
       -0.058704592 -0.090930216 -0.034699794 0.0024528257
0003d0 a6 e4 49 bd ce 93 d1 3d 4f 40 bc 35 e0 1e e1 3d
       -0.04929032 0.1023327 1.4025808e-06 0.10992217
0003e0 c3 79 04 af f7 f0 93 a7 dd b0 73 35 92 b3 74 31
       -1.2048589e-10 -4.106195e-15 9.0781924e-07 3.5608747e-09
0003f0 fb 1f 24 2e 1f 08 f9 b4 5f 28 ac 3d d9 a9 04 be
       3.7317687e-11 -4.6385773e-07 0.08406138 -0.12955417

controller.mlp.mlps.1.0.bias f4 [32]
000000 cd 89 a4 3d 71 56 10 bd 0d ee 79 bd f6 ee 2b ba
       0.08034096 -0.035238687 -0.06101804 -0.000655874
000010 ae 3d a7 bd c3 0a 19 bd 41 b8 c9 bd 6e ce 97 3c
       -0.08166061 -0.03736378 -0.09849597 0.01853105
000020 8d 77 6d 3d 80 9b f5 3d 39 ba 2a 3d 1f cd 8d bb
       0.05797534 0.1199255 0.041681502 -0.004327431
000030 39 11 3c bd 56 ed cf 3d 99 9e b6 3d c7 d6 b5 3c
       -0.045914862 0.1015269 0.08916969 0.02219714
000040 34 4d e8 3c 44 97 07 3d bc 82 d7 bc 8a 31 50 3d
       0.028357126 0.033103243 -0.026307456 0.050828494
000050 d9 fa 1d bd f8 74 70 bd a9 13 fc bb bf b9 dc 3d
       -0.038569305 -0.0587053 -0.0076927734 0.10777616
000060 90 e9 ea bc 64 87 fd 3c 05 72 0b be 3b 5f 73 bb
       -0.028675824 0.030948348 -0.13617714 -0.003713562
000070 e7 74 68 bc 17 73 c9 3d 73 4f 98 bb 42 9e 32 bc
       -0.014188028 0.09836405 -0.004648143 -0.010901989

controller.mlp.mlps.2.0.weight f4 [4, 32]
000000 5c ea 02 3e d8 2b 0e be 2b 8e ce bd 64 df d0 bd
       0.12784714 -0.13883913 -0.1008571 -0.101988584
000010 39 6a 7e 3d e8 8f 34 3d 6b 50 f9 3d 81 7d b7 bd
       0.06211302 0.044082552 0.12173542 -0.08959485
000020 29 bc 21 3e 49 4d c3 bd a7 ae e1 3c c6 9c a1 3d
       0.15794434 -0.09536225 0.027549101 0.0789123
000030 9e 0e 0e be 66 a8 e9 3d 07 dc e1 bd 82 20 a0 3d
       -0.13872764 0.114090726 -0.11028295 0.078187004
000040 36 85 02 3d 7f 6b 28 be 87 42 04 3e 9f 6f 35 be
       0.03186532 -0.16447257 0.12916003 -0.17718361
000050 a4 b2 2c be d3 79 dd 3d 2e 07 ac bc 7b 82 34 be
       -0.16865021 0.10814252 -0.020999517 -0.176279
000060 33 9a 79 3d b2 48 b5 3d ea 27 26 be 59 37 07 3e
       0.06093807 0.08851756 -0.16226164 0.13204707
000070 93 86 d6 bd d2 ed 20 be 7e 9d 18 3d c6 05 90 ac
       -0.10474887 -0.15715721 0.03725957 -4.093367e-12
000080 c1 b4 44 3d e2 4d 53 3e d2 fa 10 bd fa 34 f1 3b
       0.048023943 0.20635179 -0.03539545 0.0073610516
000090 c9 c8 50 be 3b 0e e0 bc 2c 3a 13 be 6f 40 23 be
       -0.20389093 -0.027350536 -0.1437766 -0.15942548
0000a0 7f 6a 1e 3e 27 02 71 3d 73 65 4c 3e 6b af b6 bc
       0.15470313 0.058839943 0.19960575 -0.022300443
0000b0 43 f2 e0 3d 95 f6 67 bd 07 ee 6f bd 6c 89 de bd
       0.10983708 -0.056631643 -0.05857661 -0.10866055
0000c0 b3 ad 9a bd b0 47 30 be f4 f1 06 be aa a1 97 bc
       -0.07552662 -0.17214847 -0.13178235 -0.018509705
0000d0 6c 4c 81 bc 53 64 01 3e 61 50 75 ba 6d 3a 02 3e
       -0.015783511 0.12635927 -0.00093579857 0.127176
0000e0 1a c2 3c 3e 5a 62 02 3d 6f fe 70 3d 1c 25 da bd
       0.18433419 0.031832077 0.058836397 -0.10651609
0000f0 4a cb e2 3d 3d a6 15 be 87 8d e8 3d 36 d9 13 39
       0.110739306 -0.14614196 0.11355119 0.0001409993
000100 c7 fd 0f be df d0 9b bd 7e 8e 23 3e ba 36 19 3e
       -0.14061652 -0.076081984 0.15972325 0.14962283
000110 67 e2 09 3e 88 cc df 3d 07 a0 0c 3e cf dd 13 be
       0.13465272 0.10927683 0.1373292 -0.14440082
000120 f2 74 98 bd 42 a5 39 bc 18 ac dd 3d fb 6a 1a 3e
       -0.074441805 -0.011330904 0.1082384 0.15079872
000130 0f 1c b2 bd 17 99 7d bd d6 aa d9 bd c0 88 59 3e
       -0.08696758 -0.061913576 -0.106282875 0.21243572
000140 0f 11 fa 3c 39 50 c7 3d bd 17 b2 3d f8 44 bd 3d
       0.030525712 0.09732098 0.08695934 0.0924167
000150 36 0b 4a 3e 6e 11 7a bc 97 5c 4d 3b 13 68 d0 bd
       0.19730839 -0.015262945 0.0031335705 -0.101761006
000160 f8 98 f2 3d ee cb 16 3e d6 1a a2 bd 37 b0 ff bd
       0.11845583 0.1472623 -0.07915275 -0.12484782
000170 52 83 c7 bd 9b de 01 3d 20 2c d5 3b 68 1b f4 ba
       -0.09741844 0.031706434 0.0065055043 -0.001862389
000180 37 90 24 3e 63 4b a9 3d f6 68 09 3e ae d1 20 be
       0.16070639 0.08266332 0.13418946 -0.15704986
000190 31 ab 48 3e d5 8b 05 3e 6b dd 19 bc 74 c6 a3 bd
       0.19596554 0.13041623 -0.009391169 -0.07996836
0001a0 5b bc 0b be b5 25 86 bd 31 7c b0 bc 56 e3 e5 3d
       -0.1364607 -0.06550161 -0.021543594 0.112250015
0001b0 5b 67 80 3d 00 6c d5 bc f9 1b 0b be f9 22 52 bc
       0.062697135 -0.026052475 -0.1358489 -0.012825721
0001c0 0a 58 c8 bd 3f 9b 8f 3c 47 cc 17 bd 9e 18 32 3e
       -0.09782417 0.017530082 -0.03706005 0.17392203
0001d0 b9 61 95 bd 74 ba bd bd 46 b2 a4 bd bd 65 74 bc
       -0.0729403 -0.09264079 -0.080418155 -0.014916834
0001e0 9c b0 26 3e 89 fb e8 bc c6 dc d7 3d c4 1a 14 3e
       0.16278309 -0.028440254 0.10540156 0.14463335
0001f0 5c 65 b3 3d 50 81 f3 bd 05 30 d2 3d 15 70 43 36
       0.08759567 -0.11889899 0.10263065 2.9122505e-06

controller.mlp.mlps.2.0.bias f4 [4]
000000 c7 17 18 be c4 bc 22 3e 25 4b f2 3d 24 27 88 3b
       -0.1485282 0.15892321 0.11830739 0.0041550566
