auto_select/trained_model/model.pth (torch, 123861 bytes, 28 tensors)

mlp.mlps.0.0.weight f4 [45, 90]
0.013569135 0.008385585 0.043840144 0.008518722 -0.01369349 -0.00915718 -0.00813734 -0.013062956
0.02077107 0.028578676 0.05022815 -0.010582407 0.011942701 -0.03442822 0.010414901 0.017398978
0.048478797 0.07068096 0.041074444 -0.00483281 -0.06366194 0.01932675 -0.06776876 -0.010478206
-0.03311624 -0.0020875074 -0.032435432 0.021679914 -0.03995985 -0.024996096 -0.060644064 0.07550417
0.05526145 -0.018134609 -0.013913776 -0.010371658 0.051752944 -0.064784035 0.0023914326 -0.06516444
0.09728224 0.2670866 0.10406046 -0.03761059 -0.051453467 -0.010316455 0.057373997 0.045582134
0.038643803 0.03606695 -0.010997228 0.06954558 -0.013705177 0.14691281 -0.06755076 0.19248652
0.2182512 0.08060527 -0.010129426 -0.077458285 0.06968977 0.038391992 -0.047537014 0.017527085
-0.055152316 -0.07814818 -0.09242352 -0.08265655 0.02043523 0.03402499 -0.057613946 -0.06502463
-0.03781147 -0.0014284652 -0.0755282 0.10231684 0.07479426 -0.06647642 -0.078906976 -0.11436484
0.00032739463 0.0777151 0.031593397 -0.005923192 0.120083414 -0.09352685 0.06257435 -0.00410844
0.013456786 -0.1784197 -0.01237112 0.0052323244 -0.009807302 -0.024431048 0.07180247 0.07092025
-0.018137598 0.019546121 -0.055712387 -0.06420283 -0.05872793 0.04141866 0.065369084 0.055036537
-0.015953729 0.014921691 -0.061735176 -0.043396737 -0.100041434 0.02068703 -0.06702006 0.085970685
0.012382776 0.047743052 -0.024257302 0.016746214 -0.08897552 -0.09958691 -0.050543386 0.09353582
0.070133805 0.03749997 0.094775714 0.06761286 0.047800675 -0.016657438 -0.06100321 0.06452596
0.06275574 -0.08958002 0.009763101 -0.05345199 0.050132856 -0.019023603 -0.05756291 -0.039826665
-0.059662584 0.053706557 -0.06230058 0.02415387 -0.028980026 0.04684444 0.035360157 -0.11166697
-0.02383944 -0.053916823 -0.059626177 0.043751787 0.063256174 -0.11483028 -0.060768034 0.11320278
0.0039077364 -0.050082184 0.07293187 -0.029867413 -0.044441663 -0.112854704 0.058575038 -0.058955822
-0.068813585 -0.06623443 -0.08647243 0.021692155 0.014083465 -0.009862742 -0.08576252 -0.11117593
-0.09337404 -0.083858795 0.013559938 0.011754837 -0.06977518 -0.10177651 0.038679272 0.06926864
-0.08795164 -0.07852661 -0.037892424 -0.03944439 -0.002167195 -0.002746404 -0.0034628827 -0.007331802
-0.0027727014 -0.0063320952 -0.002711499 -7.313064e-16 -0.0028268083 -0.0026135647 -0.0027590217 -0.0020889388
-0.0018809238 -0.0026174954 -1.5858674e-11 -2.3355947e-06 -3.405266e-22 -0.0065617985 0.0028595454 2.925658e-10
-1.0701889e-19 -4.6797593e-19 -1.9244459e-20 0.0043620416 -1.0193803e-18 1.3473397e-16 1.309782e-09 1.9177981e-10
3.0471696e-21 2.1126377e-07 -2.1087176e-08 8.702751e-14 -2.165321e-06 9.901443e-09 1.8132557e-07 -1.8354714e-17
-3.2452027e-07 -1.467736e-11 9.05949e-13 -7.272463e-08 -5.1950453e-15 -3.344027e-13 -1.36473645e-11 1.0280722e-08
-3.3371535e-08 9.409597e-13 -2.1754707e-09 5.357429e-19 5.0763595e-07 -5.028756e-07 -8.003812e-08 5.363586e-09
9.380151e-10 -6.498379e-08 9.724231e-12 -0.0041020866 -6.0949577e-07 -2.6270094e-11 2.3482581e-08 1.6096588e-19
0.0041431845 1.6724306e-11 -2.6095283e-16 7.560744e-07 -0.0024558615 4.500269e-13 -2.1581698e-06 -0.004390597
1.0696539e-07 1.8506014e-06 1.3598632e-14 1.0382364e-10 -1.043562e-07 -5.504709e-15 -4.3100866e-19 -1.784072e-10
00000000: 1451 5e3c b163 093c b991 333d 1c92 0b3c
00000010: a95a 60bc ff07 16bc 7a52 05bc 0206 56bc
00000020: 1728 aa3c d41d ea3c 08bc 4d3d d561 2dbc
00000030: 52ab 433c 9b04 0dbd 43a3 2a3c 4d88 8e3c
00000040: b491 463d 2ec1 903d ad3d 283d 8c5c 9ebb
00000050: 3161 82bd 2253 9e3c 59ca 8abd c8ac 2bbc
00000060: e5a4 07bd 90ce 08bb 04db 04bd 139a b13c
00000070: f1ac 23bd 9dc4 ccbc e965 78bd eea1 9a3d
00000080: d559 623d 088f 94bc 9bf6 63bc e3ed 29bc
00000090: e5fa 533d 7ead 84bd 95b9 1c3b ef74 85bd
000000a0: e93b c73d 93bf 883e a71d d53d 900d 1abd
000000b0: dfc0 52bd 5906 29bc ff00 6b3d 55b4 3a3d
000000c0: f748 1e3d f0ba 133d b82d 34bc ea6d 8e3d
000000d0: ae8b 60bc 5070 163e 0e58 8abd 301b 453e
000000e0: 3e7d 5f3e 6014 a53d e4f5 25bc 73a2 9ebd
000000f0: 83b9 8e3d ec40 1d3d 2cb6 42bd f694 8f3c
00000100: 65e7 61bd 270c a0bd 8b48 bdbd d647 a9bd
00000110: c967 a73c ca5d 0b3d 9afc 6bbd a22b 85bd
00000120: 33e0 1abd 573b bbba 87ae 9abd 7e8b d13d
00000130: bc2d 993d ca24 88bd fb99 a1bd 1d38 eabd
00000140: 2aa6 ab39 1829 9f3d 1468 013d 5617 c2bb
00000150: 4bee f53d 018b bfbd fb26 803d 18a0 86bb
00000160: da79 5c3c a7b3 36be 3db0 4abc eb73 ab3b
00000170: ceae 20bc 9f23 c8bc 2c0d 933d a33e 913d
00000180: 4d95 94bc 301f a03c ac32 64bd c67c 83bd
00000190: b38c 70bd 9da6 293d 3ae0 853d fe6d 613d
000001a0: 65b1 82bc 1c7a 743c 06de 7cbd c7c0 31bd
000001b0: 86e2 ccbd d977 a93c d041 89bd 6611 b03d
000001c0: 20e1 4a3c 388e 433d 40b7 c6bc 5b2f 893c
000001d0: cc38 b6bd 39f4 cbbd 9506 4fbd b58f bf3d
000001e0: 50a2 8f3d 9299 193d c519 c23d 9c78 8a3d
000001f0: a4ca 433d 2e75 88bc 80de 79bd 3026 843d
00000200: 1586 803d bb75 b7bd 6af5 1f3c 79f0 5abd
00000210: 1c58 4d3d 63d7 9bbc 16c7 6bbd 4921 23bd
00000220: c160 74bd 68fb 5b3d e52e 7fbd 56de c53c
00000230: 8567 edbc f5df 3f3d d0d5 103d a7b1 e4bd
00000240: ee4a c3bc e3d7 5cbd 943a 74bd 1335 333d
00000250: 748c 813d 232c ebbd e7e7 78bd dcd6 e73d
00000260: 780c 803b fa22 4dbd 4e5d 953d 81ac f4bc
00000270: 7608 36bd 5e20 e7bd 61ec 6f3d a97b 71bd
00000280: 23ee 8cbd eba5 87bd 7518 b1bd bfb3 b13c
00000290: 55be 663c 5797 21bc 43a4 afbd 35b0 e3bd
000002a0: e43a bfbd 29be abbd 812a 5e3c 5c97 403c
000002b0: 4ae6 8ebd 3470 d0bd 286e 1e3d b7dc 8d3d
000002c0: fd1f b4bd 8fd2 a0bd 1635 1bbd 7190 21bd
000002d0: 8007 0ebb 03fd 33bb 88f1 62bb 9d3f f0bb
000002e0: 36b6 35bb 777d cfbb 68b3 31bb e3c8 52a6
000002f0: f941 39bb 5748 2bbb b4d0 34bb 94e6 08bb
00000300: 5489 f6ba 498a 2bbb 8f7e 8bad 36bd 1cb6
00000310: f0d5 cd9b 5b04 d7bb 3667 3b3b fad6 a02f
00000320: f3b0 fc9f 431f 0aa1 3fc2 b59e 75ef 8e3b
00000330: 196f 96a1 7356 1b25 db03 b430 38dd 522f
00000340: d53c 661d bed7 6234 3123 b5b2 f2f7 c329
00000350: ee4f 11b6 021b 2a32 65b2 4234 d84a a9a3
00000360: ba39 aeb4 7a1a 81ad 8100 7f2b ca2c 9cb3
00000370: d62b bba7 8240 bcaa 4416 70ad 189f 3032
00000380: 6454 0fb3 a56d 842b 497f 15b1 971f 1e21
00000390: 7a44 0835 59fd 06b5 6ce1 abb3 9a4a b831
000003a0: 79eb 8030 378d 8bb3 0b12 2b2d cc6a 86bb
000003b0: 3b9c 23b5 fe12 e7ad beb6 c932 f408 3e20
000003c0: 8dc3 873b ca1b 932d d76d 96a5 0af5 4a35
000003d0: 85f2 20bb b657 fd2a 13d5 10b6 ffde 8fbb
000003e0: d8b4 e533 2e62 f835 9ff8 7428 834f e42e
000003f0: 6d1a e0b3 fb53 c6a7 306c fea0 2a29 44af

mlp.mlps.0.0.bias f4 [45]
-0.013857197 -0.029973458 -0.002823599 0.038300995 0.066188455 -0.035947643 0.0828023 -0.077642806
0.105853714 0.040479142 0.13403547 0.006308613 0.123049326 0.040979534 0.068181835 -0.00250387
0.04761901 -0.053121015 0.04157308 0.13319977 0.07472037 -0.018081358 0.089136854 0.068525575
0.06547145 0.1095892 0.010703407 0.02856139 0.08132609 -0.014476719 0.074286 -0.014131944
-0.02900158 0.052074734 -0.05698245 0.006157013 -0.07998016 -0.08968063 -0.0007139741 0.0024260655
0.13598087 0.025482463 -2.4601636e-06 -0.008288117 0.03428419
00000000: 4c09 63bc e68a f5bc 210c 39bb 81e1 1c3d
00000010: d08d 873d d63d 13bd 4194 a93d 3103 9fbd
00000020: d5c9 d83d 75cd 253d 9840 093e 7bb8 ce3b
00000030: 4901 fc3d 28da 273d eba2 8b3d f817 24bb
00000040: 270c 433d 6c95 59bd 8948 2a3d 8565 083e
00000050: fe06 993d 5b1f 94bc 628d b63d 2357 8c3d
00000060: e515 863d 4d70 e03d 585d 2f3c 93f9 e93c
00000070: 4b8e a63d c32f 6dbc 4223 983d ab89 67bc
00000080: b994 edbc 514c 553d 6e66 69bd c5c0 c93b
00000090: a3cc a3bd 7aaa b7bd fe29 3bba a0fe 1e3b
000000a0: 923e 0b3e 99c0 d03c 4a19 25b6 e2ca 07bc
000000b0: 946d 0c3d

mlp.mlps.1.0.weight f4 [5, 45]
-0.19378869 -0.024303952 7.819447e-06 -0.14987917 0.09568789 -0.05476902 -0.058853015 -0.13089217
-0.24474286 -0.24476467 0.2113762 -0.1766728 0.24893896 -0.11260647 0.16386609 0.012630399
-0.17088716 -0.13817957 0.2840295 0.2265409 0.037754104 9.760626e-05 -0.15332544 -0.029550161
0.15370911 0.23628186 -0.14963384 -0.26571256 0.11013336 0.15918058 -0.032350298 0.05790331
0.11853079 0.13187663 -0.11485752 -0.08005393 -0.06895929 0.015317711 4.004759e-06 -0.13464732
0.17601278 0.07757758 2.6059686e-05 0.09031232 0.06507528 -0.03678859 -0.12084519 0.00013264308
0.10691135 0.044727184 0.20025598 0.10697623 -0.014175715 0.0661109 0.07730717 0.15554498
0.054417282 0.0035334686 -0.03028111 0.11027745 -1.3096073e-12 -0.13983634 0.12467632 0.021623602
-0.008620636 -0.11219012 0.00038254727 0.021938235 -0.08512265 -0.08374785 -0.11362821 -0.052460883
-0.105865635 0.07361413 0.112417504 0.028513918 0.06339873 -0.14940238 0.069969766 -0.06533389
-0.10482312 0.026198974 -0.10839128 3.268026e-07 -0.06358156 0.16589129 -0.009560209 -1.189692e-15
0.09389617 -0.10865003 0.12832482 -0.10755789 -3.3768213e-08 0.16982725 -0.032978553 -0.14536938
0.14182985 0.15471011 0.20241864 -0.037051223 -0.077726535 -0.0843326 -0.10511398 0.0900227
0.041816004 -0.0044153924 0.09636906 -0.08856871 -0.10217258 -0.13067047 0.12383708 1.0487469e-05
0.06625368 0.16882078 -0.29553932 -0.17231844 -0.027631197 0.18794799 0.052837875 0.08335688
0.15913613 0.09530499 0.01113577 -0.11071274 0.16410422 -0.076851666 0.090649314 -0.16346778
-1.6854108e-05 -0.091121696 0.025938962 0.049391855 4.360057e-06 0.09855781 -0.16170366 0.05887552
-0.114505984 8.498484e-05 0.10351575 -0.16909012 -0.07403361 -0.04791418 0.12570527 -0.14121881
-0.09879673 -0.0330287 0.0133328885 -0.03944493 0.12551807 -0.11902854 0.0008054864 -0.073356
-0.056780133 -0.117009856 -0.18934758 -0.12777704 1.1391174e-05 -0.057168715 -0.035198 0.12348667
-0.02732274 -0.088342644 0.10379201 -0.0941335 -0.13660157 0.09687138 0.13028623 -0.14774776
0.09285652 0.18684466 -0.04770485 -0.013916375 0.032458458 -3.9679288e-11 0.095204815 -0.21296492
0.12959592 -1.5413851e-06 0.087815285 0.053148143 0.051661473 0.0210308 4.6504187e-09 -0.1444316
0.050716255 -0.014021568 0.03222769 0.0842038 0.108328015 -0.012747629 -0.02882289 -0.07640773
0.00049227476 0.09036457 -0.028970636 -0.00020808997 0.13486211 0.039285764 -0.12082378 -0.08027537
-0.11694698 -6.308292e-06 -0.012754872 -0.009715819 0.11641795 7.002487e-05 -0.0137143275 0.05683636
-0.007947243 0.10642198 -0.012333514 -0.024767412 -0.13525607 0.039776336 0.023533823 -0.0052112634
-0.08470712 -0.014606148 -2.363263e-05 0.106445774 -0.00815369 -0.11182864 -0.00019603889 -0.10680101
0.04495662
00000000: 8b70 46be 1519 c7bc 4530 0337 ed79 19be
00000010: 03f8 c33d 7b55 60bd dc0f 71bd 9908 06be
00000020: df9d 7abe 97a3 7abe 0173 583e b7e9 34be
00000030: dbe9 7e3e 399e e6bd 83cc 273e bcef 4e3c
00000040: 0bfd 2ebe f27e 0dbe 516c 913e 56fa 673e
00000050: 0ca4 1a3d f6b1 cc38 5801 1dbe 2e13 f2bc
00000060: ec65 1d3e dff3 713e 9d39 19be 7a0b 88be
00000070: 998d e13d 3c00 233e bf81 04bd 052c 6d3d
00000080: 45c0 f23d ab0a 073e 6b3a ebbd 51f3 a3bd
00000090: 873a 8dbd 23f7 7a3c 9e60 8636 fde0 09be
000000a0: b23c 343e ffe0 9e3d c09a da37 aaf5 b83d
000000b0: 3046 853d a2af 16bd af7d f7bd 1b16 0b39
000000c0: 56f4 da3d da33 373d e70f 4d3e 5b16 db3d
000000d0: 4241 68bc 2765 873d 3953 9e3d 2f47 1f3e
000000e0: a8e4 5e3d c491 673b 1710 f8bc 25d9 e13d
000000f0: 934f b8ab 4231 0fbe 4c56 ff3d fb23 b13c
00000100: 913d 0dbc efc3 e5bd a090 c839 d0b7 b33c
00000110: c954 aebd fe83 abbd e8b5 e8bd 39e1 56bd
00000120: 15d0 d8bd 01c3 963d 263b e63d 0596 e93c
00000130: 31d7 813d f0fc 18be 4f4c 8f3d c6cd 85bd
00000140: 81ad d6bd 3b9f d63c 3ffc ddbd 6873 af34
00000150: 0d37 82bd 68df 293e 6ca2 1cbc e373 aba6
00000160: a34c c03d e883 debd 9567 033e 5047 dcbd
00000170: 8b08 11b3 32e7 2d3e 8514 07bd b6db 14be
00000180: d83b 113e 546c 1e3e d546 4f3e 06c3 17bd
00000190: 172f 9fbd 92b6 acbd 0046 d7bd d25d b83d
000001a0: 4247 2b3d ffae 90bb 245d c53d 8363 b5bd
000001b0: dc3f d1bd 7bce 05be 4c9e fd3d 56f3 2f37
000001c0: 02b0 873d 5bdf 2c3e ee50 97be 3f74 30be
000001d0: d25a e2bc 7075 403e 876c 583d 03b7 aa3d
000001e0: 95f4 223e 432f c33d ce72 363c 5cbd e2bd
000001f0: f00a 283e 6864 9dbd 59a6 b93d 1964 27be
00000200: ec61 8db7 039e babd f27d d43c 1d4f 4a3d
00000210: 9b4c 9236 add8 c93d a595 25be 7527 713d
00000220: 1d82 eabd e339 b238 1100 d43d f625 2dbe
00000230: ef9e 97bd a941 44bd e2b8 003e aa9b 10be
00000240: f155 cabd 1a49 07bd 3072 5a3c 0291 21bd
00000250: cf87 003e 3cc5 f3bd 4727 533a ac3b 96bd
00000260: 4992 68bd dda2 efbd 55e4 41be fcd7 02be
00000270: b81c 3f37 be29 6abd c72b 10bd 94e6 fc3d
00000280: f0d3 dfbc fdec b4bd e890 d43d 10c9 c0bd
00000290: 48e1 0bbe 8164 c63d c169 053e 304b 17be
000002a0: 8f2b be3d 3554 3f3e 2966 43bd 8201 64bc
000002b0: 29f3 043d e882 2eae befa c23d 7a13 5abe
000002c0: cbb4 043e 97e1 ceb5 80d8 b33d deb1 593d
000002d0: fb9a 533d c948 ac3c 84c9 9f31 e1e5 13be
000002e0: d9bb 4f3d b8ba 65bc 2f01 043d 0b73 ac3d
000002f0: 14db dd3d 6edb 50bc fb1d ecbc a87b 9cbd
00000300: 000c 013a 0f11 b93d d453 edbc ba32 5ab9
00000310: 4b19 0a3e 1cea 203d 7572 f7bd 6a67 a4bd
00000320: e681 efbd d1ab d3b6 d0f9 50bc 192f 1fbc
00000330: 896c ee3d 51da 9238 0fb2 60bc 3ecd 683d
00000340: 2735 02bc c4f3 d93d 8212 4abc 07e5 cabc
00000350: 9180 0abe 83ec 223d 01ca c03c 3fc3 aabb
00000360: ed7a adbd a04e 6fbc b03e c6b7 3e00 da3d
00000370: 0e97 05bc 6a06 e5bd ca8f 4db9 7dba dabd
00000380: 6f24 383d

mlp.mlps.1.0.bias f4 [5]
0.14413288 0.0033920265 -0.028912809 0.075772904 -0.08150193
00000000: 9297 133e c34c 5e3b 8eda ecbc d32e 9b3d
00000010: 7cea a6bd

Finedcontroller.fined_class.0.mlp.mlps.0.0.weight f4 [36, 36]
-0.047094047 0.12283244 -0.14816733 -0.02093446 0.09655889 0.06345057 0.036571816 -0.059424594
-0.038817156 -0.0076375953 -0.070760615 0.030528255 -0.079245865 -0.08522975 -0.07797398 0.05614763
-0.010636631 -0.014427935 0.10730432 -0.091705486 0.10502174 0.033339832 0.06521365 -0.075436406
-0.04327053 -0.08870597 0.012884651 0.15073425 0.04362143 -0.010283935 0.042310618 0.0041754534
0.010139025 -0.00043824915 0.0023765275 0.012629475 0.032655887 -0.0115179615 0.043896366 0.15935986
0.07173806 -0.12316838 0.028768914 -0.14596719 0.028097387 -0.012681618 0.021757612 0.09065364
-0.07801236 0.06943002 -0.05424861 0.12928489 0.06218378 -0.014729132 -0.10805025 0.15675578
-0.09522437 0.039797366 -0.08108625 -0.10539951 -0.03877031 0.16789085 -0.013047455 -0.09134377
0.028881446 0.14670795 0.06392393 -0.07096359 -0.04307311 0.020858303 -0.046163607 0.0128237605
-0.00029008513 -0.00016724346 1.826361e-08 1.5990394e-05 -4.3616794e-16 -2.9200178e-06 -7.630774e-06 4.4015547e-08
-0.00012822848 -2.0436416e-06 -3.417777e-06 -6.253047e-05 7.7928487e-16 -6.539209e-11 -0.0002524379 -6.962547e-16
9.525454e-12 -7.774034e-06 1.7132487e-20 -5.4988945e-05 -1.5134722e-11 -2.166718e-07 -1.8399972e-10 -2.6028928e-08
-0.00013522858 1.1518375e-08 -0.00040701832 -0.00029518278 -1.4651352e-05 -4.023068e-05 -0.0004364763 -5.6044365e-07
0.0006642167 3.7232923e-08 1.3242706e-06 0.00032063713 7.657924e-23 -3.7925201e-06 -9.283562e-05 -2.3602173e-05
-0.00027909892 1.118866e-07 -2.5523814e-08 -7.2671694e-19 2.8583324e-08 -0.00023450375 1.0208986e-06 6.460038e-05
-0.0004064602 1.2086437e-17 2.9196043e-09 -1.015654e-13 1.4007328e-06 -0.00016074281 3.9752664e-05 2.7178487e-16
-0.00015124233 -6.753081e-07 -1.4424506e-06 -3.3480745e-08 1.3863797e-14 -9.213112e-09 0.0006223493 -5.3931854e-13
-0.000668881 -7.165772e-21 -0.00066769833 -9.986169e-22 -0.000117643336 9.5319586e-12 2.4517046e-06 -0.0005322054
3.6261426e-07 -1.11800325e-07 3.8969274e-06 1.953022e-06 4.2537004e-06 0.0001755449 -3.223448e-05 -0.00040348613
3.5986775e-06 -1.0325056e-05 -9.179015e-08 -7.4399146e-08 -0.0003199324 -0.00020955854 -3.2629703e-06 -1.8739452e-09
6.9231837e-06 6.744996e-05 8.378312e-07 -1.1892756e-07 -0.00022463335 -1.896124e-06 -2.6279868e-13 -1.3505725e-09
-4.6903244e-07 -0.00014712842 3.4791992e-19 -9.199886e-09 9.611976e-12 1.3719903e-19 2.9307166e-06 6.477666e-05
-2.0328973e-11 8.536305e-05 4.004488e-16 6.526555e-13 -9.048927e-06 3.515888e-07 -6.3447064e-06 -0.00035777898
-6.8714758e-06 0.00011155892 -1.264114e-05 -3.5140538e-06 -2.735911e-06 -2.6413045e-05 -8.083553e-05 -0.001396939
2.5795757e-08 -1.9994204e-06 -5.8496203e-06 0.0008256221 -1.1861332e-08 6.648703e-06 1.1015985e-05 1.358673e-07
8.899377e-09 1.2222887e-08 -0.0005589509 -1.937551e-11 -0.0005779381 6.8716935e-07 -6.1857577e-06 5.1014313e-09
-8.598805e-14 -1.3825888e-11 1.767749e-05 1.6979789e-06 3.6959458e-10 -0.0002372794 -0.00019282 -8.171431e-09
-3.1571024e-05 -4.2498665e-05 -3.0733314e-05 -8.0848484e-05 -2.6510248e-05 -2.554766e-05 -0.00026634597 -7.0478727e-06
-2.6996177e-05 -1.3091232e-05 -0.00028415013 0.0006921265 -0.00064943347 -1.456669e-05 3.8447733e-06 -2.2403276e-05
-1.9643517e-06 -1.0184384e-05 -1.636142e-05 -5.591688e-06 3.3011113e-06 -9.167951e-05 -1.05774255e-07 8.318992e-05
-2.6066058e-14 6.372351e-06 2.8826534e-14 -9.4638945e-06 7.525901e-07 -9.635225e-05 0.00016926017 -0.0005763349
-0.00012791228 7.143824e-05 -7.280886e-16 -0.00053670385 5.0472668e-11 -9.389361e-14 -1.8097062e-15 8.857989e-11
00000000: b0e5 40bd 938f fb3d 2db9 17be bf7e abbc
00000010: abc0 c53d 5ff2 813d 54cc 153d 3467 73bd
00000020: bdfe 1ebd cb44 fabb f1ea 90bd 6416 fa3c
00000030: a84b a2bd ef8c aebd d2b0 9fbd 0ffb 653d
00000040: 4445 2ebc 2563 6cbc 5ec2 db3d 16d0 bbbd
00000050: a315 d73d 598f 083d bc8e 853d 677e 9abd
00000060: 703c 31bd 7aab b5bd 251a 533c 145a 1a3e
00000070: 62ac 323d f37d 28bc e64d 2d3d 3ed2 883b
00000080: 271e 263c cec4 e5b9 84bf 1b3b dceb 4e3c
00000090: 2ec2 053d d5b5 3cbc adcc 333d 3b2f 233e
000000a0: 67eb 923d b43f fcbd c9ac eb3c 6c78 15be
000000b0: 7e2c e63c 90c6 4fbc 053d b23c 9ea8 b93d
000000c0: f2c4 9fbd 5431 8e3d ca33 5ebd 4263 043e
000000d0: 6bb4 7e3d 7552 71bc 7349 ddbd 9684 203e
000000e0: ff04 c3bd 9002 233d 8c10 a6bd b3db d7bd
000000f0: 9ecd 1ebd 94eb 2b3e fec4 55bc 7112 bbbd
00000100: c898 ec3c 9c3a 163e 8dea 823d 5c55 91bd
00000110: 6e6d 30bd 08df aa3c 0d16 3dbd c01a 523c
00000120: 9116 98b9 135e 2fb9 1ae2 9c32 1c23 8637
00000130: 076f fba5 86f5 43b6 ed05 00b7 9b0b 3d33
00000140: 1275 06b9 7f25 09b6 f65c 65b6 ca22 83b8
00000150: 139d 6026 79cc 8fae a459 84b9 87ae 48a6
00000160: d592 272d 396d 02b7 d0cf a11e eea3 66b8
00000170: 5d20 85ad 4aa6 68b4 514f 4aaf 3896 dfb2
00000180: 25cc 0db9 59e2 4532 1365 d5b9 c3c2 9ab9
00000190: 14cf 75b7 5dbd 28b8 dbd6 e4b9 6571 16b5
000001a0: d41e 2e3a 08ea 1f33 97bd b135 301b a839
000001b0: 4128 b91a 0083 7eb6 beb0 c2b8 48fd c5b7
000001c0: 0654 92b9 4f46 f033 763f dbb2 2e7d 56a1
000001d0: 6587 f532 1fe5 75b9 cf05 8935 117a 8738
000001e0: 2a1a d5b9 96f4 5e23 39a2 4831 78b4 e4a9
000001f0: d000 bc35 128d 28b9 19bc 2638 5eac 9c25
00000200: ce96 1eb9 d246 35b5 3a9a c1b5 78cc 0fb3
00000210: 7bbf 7928 b247 1eb2 2825 233a ffcd 17ab
00000220: d857 2fba 8c5b 079e 7a08 2fba 1fe8 969c
00000230: 49b7 f6b8 20b0 272d f787 2436 b383 0bba
00000240: 53ad c234 e116 f0b3 5ac2 8236 aa10 0336
00000250: 02bb 8e36 7a12 3839 8233 07b8 fe8a d3b9
00000260: cf80 7136 c739 2db7 2b1e c5b3 5dc5 9fb3
00000270: 9abc a7b9 f1bc 5bb9 67f9 5ab6 cbc6 00b1
00000280: b24d e836 ec73 8d38 52e7 6035 1e65 ffb3
00000290: 8e8b 6bb9 537e feb5 48f1 93aa 0c9f b9b0
000002a0: 54cf fbb4 7c46 1ab9 2c60 cd20 870d 1eb2
000002b0: 7e18 292d ddf9 2120 54ad 4436 b4d8 8738
000002c0: c7d0 b2ad f004 b338 d0d7 e625 c9b4 372b
000002d0: d8d0 17b7 ffc1 bc34 9de4 d4b6 4894 bbb9
000002e0: 8791 e6b6 bdf4 e938 4815 54b7 fcd2 6bb6
000002f0: 989a 37b6 9591 ddb7 3f86 a9b8 7f19 b7ba
00000300: 7895 dd32 c82d 06b6 db47 c4b6 906e 583a
00000310: b1c6 4bb2 ed17 df36 4cd1 3837 ebe2 1134
00000320: e0e3 1832 d3fc 5132 8f86 12ba c56d aaad
00000330: c580 17ba eb75 3835 418f cfb6 aa48 af31
00000340: bca0 c1a9 443a 73ad 1f4a 9437 1ce6 e335
00000350: d02f cb2f 34ce 78b9 ba2f 4ab9 5562 0cb2
00000360: 216b 04b8 9840 32b8 a5e7 00b8 338d a9b8
00000370: 5362 deb7 2f4f d6b7 5aa4 8bb9 c47c ecb6
00000380: d975 e2b7 6aa2 5bb7 fcf9 94b9 d36f 353a
00000390: be3e 2aba 7563 74b7 5a02 8136 abee bbb7
000003a0: 4ed3 03b6 99dd 2ab7 e23f 89b7 3ca0 bbb6
000003b0: a988 5d36 1044 c0b8 0326 e3b3 4076 ae38
000003c0: 3dc8 eaa8 14d2 d536 bbd2 0129 1ec7 1eb7
000003d0: 9905 4a35 b810 cab8 6e7b 3139 2e15 17ba
000003e0: 3120 06b9 1dd1 9538 75db 51a6 96b1 0cba
000003f0: 2cfb 5d2e fb6d d3a9 3067 02a7 0cca c22e

Finedcontroller.fined_class.0.mlp.mlps.0.0.bias f4 [36]
0.05276352 0.11006157 -0.00072402443 -0.0001489203 -1.6257523e-07 -7.0738874e-06 -2.0681573e-05 -1.5560946e-17
-0.013125996 0.12348583 -0.16316459 -0.011167508 -4.8527323e-05 4.9956344e-24 0.010336403 -1.1970864e-14
0.0078885695 -0.04866233 -0.020390261 0.07192679 0.15222979 0.03673677 1.1917278e-06 -0.08178407
-0.059769195 -0.15310135 0.0012151198 0.00041683225 -1.2523228e-10 0.122089714 0.11128601 -1.9520023e-06
0.0009869882 0.066306934 -0.039119817 -0.0074727065
00000000: 901e 583d f667 e13d 75cc 3dba 7d27 1cb9
00000010: 5790 2eb4 3b5c edb6 577d adb7 3f86 8fa3
00000020: 6b0e 57bc 24e6 fc3d 9e14 27be ecf7 36bc
00000030: d189 4bb8 5e42 c118 045a 293c dea5 57a8
00000040: 0f3f 013c 2752 47bd 7a09 a7bc 5a4e 933d
00000050: 20e2 1b3e 4c79 163d 75f3 9f35 687e a7bd
00000060: 8bd0 74bd 9ac6 1cbe a844 9f3a 478a da39
00000070: c1b1 09af 2c0a fa3d ebe9 e33d 25ff 02b6
00000080: d45d 813a eecb 873d 1a3c 20bd 9bdd f4bb

Finedcontroller.fined_class.0.mlp.mlps.1.0.weight f4 [64, 36]
-0.0058969418 -0.09506607 -0.00074693887 -8.133071e-05 -8.5364235e-07 8.062661e-08 -4.5437228e-06 -2.3425833e-13
-0.0005105081 -0.025325086 0.10491449 0.064409286 -8.123662e-09 6.8739904e-15 0.07197987 2.5258055e-07
0.024276461 -0.15923117 -0.0026273176 0.030822098 -0.11696399 -0.015591758 -1.636551e-06 0.104616724
0.04564254 -0.16050258 -7.2242265e-06 -8.115787e-07 3.023253e-14 -0.019865273 -0.0922913 -5.105247e-07
0.07959748 0.09915314 -0.030300077 -0.005639363 0.0006428167 0.031470604 4.2750708e-06 1.2016168e-09
1.1895926e-15 -1.0632706e-21 -2.9215272e-09 5.5909744e-24 4.1143014e-13 -0.006535259 -0.008362408 -0.03965457
-6.4514595e-08 9.283042e-05 0.0044997344 5.180751e-16 -0.00025610792 -0.008774412 6.374294e-20 0.043318328
0.00081166625 -0.00077574357 9.73469e-09 -0.03597575 0.004033258 -0.035880156 -9.778595e-10 -6.734293e-05
2.7246505e-20 0.0006542345 -0.014529698 1.3227131e-07 -0.004727118 -0.002628619 0.0004759617 -2.60048e-13
-0.00040425506 -0.06492931 -4.6464334e-06 8.150861e-11 -8.581913e-07 -7.053611e-07 1.8088396e-05 -2.6763982e-07
0.001154577 -0.13544522 0.16704717 0.109643 -2.4275353e-08 -2.2978787e-21 -0.10166296 -9.5316906e-08
-0.09127817 -0.0056224833 -0.007208028 0.049665526 0.15036929 -0.0050562406 -4.384184e-05 0.15239744
0.17666538 0.079582706 -0.00034391737 -1.3627202e-06 4.6177017e-11 0.084529355 0.15876776 1.7244234e-06
-0.06144284 -0.08305269 0.064321466 0.0075495467 -0.018564058 -0.087645866 -5.059792e-06 9.9785874e-18
-0.0004909404 -0.0006971318 8.196031e-07 7.687546e-15 4.0698965e-06 0.00052474404 -0.036556326 0.12259067
1.1383041e-06 -1.3504481e-05 0.096062645 8.6665195e-06 -0.09920066 -0.053085066 0.0033246654 0.113302454
0.0041944385 0.0012200712 -2.4511971e-06 -0.1190254 0.13529098 -0.05088116 -0.00013906066 -1.2973887e-06
7.331399e-12 0.024347201 0.018195597 5.8767637e-07 -0.07920256 0.15312044 0.025162496 0.0013996527
0.01903906 -0.053385235 4.881908e-13 6.2010987e-09 0.00013759648 -5.5810256e-06 2.2045666e-05 -1.1378823e-17
0.0036555289 0.092826575 0.11710018 0.009264406 5.520298e-11 -2.8541646e-05 0.0048478656 5.8126735e-09
0.0643901 -0.0014920186 0.0051398952 0.044893652 0.03385948 0.03187134 2.156017e-09 -0.14305061
-0.14077452 -0.043942854 -0.00010446088 7.8544264e-07 3.794057e-11 0.06553828 0.017576598 -0.0001551785
0.14820872 0.027283859 -0.019328274 0.009569253 -0.00020118667 0.0058327653 -1.647923e-07 -0.00039802742
-1.5862013e-09 -1.1796888e-06 -1.1839354e-05 -6.069474e-14 1.6537809e-06 0.0044501363 -0.005999073 -0.036658384
1.4205163e-20 2.114029e-09 -0.018424615 -2.363317e-13 -0.00018169603 -0.042063363 -1.8092694e-08 0.0063344873
0.0076080225 0.0002450252 1.9015808e-21 0.017242933 -0.029715704 -0.025245454 0.00012332367 1.1470651e-11
1.1191671e-15 2.7019553e-06 0.0036585734 5.5707513e-08 0.030283028 0.0018152852 0.0008521758 2.2579608e-05
0.035206873 -0.02786389 -2.902697e-07 0.00012834184 -3.992497e-07 5.2566537e-07 2.5215747e-06 5.9049566e-12
-0.017131101 0.035578553 -0.10264801 0.110756725 3.231724e-06 0.00033888032 0.011080127 2.1289327e-19
0.10009343 0.035177574 -0.0017285678 -0.13103655 0.0111034075 -0.002619762 -2.3013463e-07 0.13676994
-0.0942372 0.0769778 0.00021032913 0.00012252247 -2.18744e-13 -0.0052295034 -0.05564073 -1.5017237e-06
-0.121000804 0.04158279 -0.0052006426 -0.0006042673 -0.043219294 -0.07310568 -0.0006663084 -6.2800876e-19
00000000: 223b c1bb 00b2 c2bd 38ce 43ba 1890 aab8
00000010: db25 65b5 f324 ad33 4876 98b6 2fe0 83aa
00000020: 9ed3 05ba 8e76 cfbc 68dd d63d 04e9 833d
00000030: 3e90 0bb2 5fa9 f727 2f6a 933d 689a 8734
00000040: 6edf c63c 7f0d 23be 132f 2cbb a07e fc3c
00000050: d18a efbd 9374 7fbc 77a7 dbb5 4b41 d63d
00000060: acf3 3a3d ca5a 24be a267 f2b6 43db 59b5
00000070: bc27 0829 7fbc a2bc 3903 bdbd fe0a 09b5
00000080: 0104 a33d cd10 cb3d de37 f8bc 68ca b8bb
00000090: b382 283a 52e7 003d 9472 8f36 2226 a530
000000a0: 3870 ab26 4aad a09c 0dc4 48b1 544a d818
000000b0: 559d e72a ba25 d6bb 7b02 09bc d56c 22bd
000000c0: 468b 8ab3 f4ad c238 8272 933b 3253 1526
000000d0: 3946 86b9 8dc2 0fbc 3e82 961f 8f6e 313d
000000e0: 00c6 543a 455b 4bba 9f3d 2732 4f5b 13bd
000000f0: 6c29 843b 12f7 12bd 5f65 86b0 763a 8db8
00000100: 01ab 001f ef80 2b3a f80d 6ebc 7606 0e34
00000110: f1e5 9abb e944 2cbb 7f8a f939 de64 92aa
00000120: 32f2 d3b9 a8f9 84bd 8fe8 9bb6 453d b32e
00000130: 755e 66b5 0c58 3db5 89bc 9737 23b0 8fb4
00000140: 2d55 973a 27b2 0abe 6a0e 2b3e 828c e03d
00000150: 1186 d0b2 709f 2d9d ac34 d0bd 06b1 ccb3
00000160: 0df0 babd cf3c b8bb 5231 ecbb 146e 4b3d
00000170: 68fa 193e d2ae a5bb d1e2 37b8 130e 1c3e
00000180: c5e7 343e 42fc a23d cf4f b4b9 b6e6 b6b5
00000190: b316 4b2e ba1d ad3d 0494 223e bd72 e735
000001a0: 7dab 7bbd 8717 aabd f9ba 833d 3062 f73b
000001b0: a713 98bc ad7f b3bd 48c7 a9b6 8c12 3823
000001c0: 74b2 00ba b9bf 36ba b202 5c35 8c7c 0a28
000001d0: 2590 8836 fa8e 093a 16bc 15bd d110 fb3d
000001e0: d5c7 9835 4e91 62b7 7ebc c43d 6b66 1137
000001f0: b729 cbbd ba6f 59bd a1e2 593b 1e0b e83d
00000200: 8071 893b ccea 9f3a 3f7f 24b6 97c3 f3bd
00000210: b889 0a3e c368 50bd d0d0 11b9 f021 aeb5
00000220: b0f9 002d c873 c73c ef0e 953c d0c0 1d35
00000230: f434 a2bd 9bcb 1c3e 9421 ce3c 8d74 b73a
00000240: cef7 9b3c 7aaa 5abd db69 092b 7111 d531
00000250: c647 1039 a544 bbb6 b5ee b837 f9e6 51a3
00000260: 9991 6f3b dc1b be3d 38d2 ef3d bcc9 173c
00000270: 08c9 722e b86c efb7 d8da 9e3b d1b8 c731
00000280: f5de 833d d68f c3ba 916c a83b 68e2 373d
00000290: 3db0 0a3d 868b 023d 0d29 1431 dc7b 12be
000002a0: 3227 10be 6cfd 33bd 0212 dbb8 35d7 5235
000002b0: 49dd 262e ef38 863d ccfc 8f3c 69b7 22b9
000002c0: 07c4 173e 6682 df3c 5456 9ebc 5bc8 1c3c
000002d0: a3f5 52b9 c820 bf3b c3f1 30b4 56ae d0b9
000002e0: 7f01 dab0 cc55 9eb5 a3a1 46b7 23ac 88a9
000002f0: 7bf7 dd35 73d2 913b df93 c4bb 1a27 16bd
00000300: fa29 861e 6446 1131 38ef 96bc fd0a 85aa
00000310: a885 3eb9 a24a 2cbd 416a 9bb2 8891 cf3b
00000320: b84c f93b ba76 8039 ecad 0f1d 0d41 8d3c
00000330: 596e f3bc 8ecf cebc 7250 0139 38cb 492d
00000340: fa49 a126 3d53 3536 adc4 6f3b 0f43 6f33
00000350: 1d14 f83c ddee ed3a 8d64 5f3a 5769 bd37
00000360: 1535 103d d042 e4bc 5dd6 9bb4 8093 0639
00000370: 7658 d6b4 731b 0d35 5338 2936 1fc3 cf2c
00000380: 8656 8cbc d1ba 113d 1f39 d2bd 6cd4 e23d
00000390: 98e0 5836 bfab b139 6c89 353c 0b57 7b20
000003a0: c9fd cc3d 5c16 103d 1c91 e2ba 722e 06be
000003b0: 11eb 353c 50b0 2bbb ed1a 77b4 6b0d 0c3e
000003c0: 6fff c0bd 89a6 9d3d cc8b 5c39 6079 0039
000003d0: aa48 76aa 415c abbb 89e7 63bd d58e c9b5
000003e0: 45cf f7bd b752 2a3d 276a aabb b167 1eba
000003f0: b706 31bd 6eb8 95bd 33ab 2eba 005b 39a1

Finedcontroller.fined_class.0.mlp.mlps.1.0.bias f4 [64]
0.040738918 -0.04636595 -0.033341896 0.13950068 0.033296 -0.019010128 0.05405971 -0.08469705
0.05613553 0.15334332 -0.010136686 -0.0048300787 0.1493928 0.17720537 0.07733452 0.0080904765
-0.10734281 0.09472529 0.012192958 0.107659765 0.09831945 -0.15931028 0.066841565 0.059088387
0.07358172 -0.02361963 -0.043418556 0.027567022 -0.04326545 -0.057747398 -0.056581046 0.11766017
0.058703538 -0.053282678 0.10265739 0.11795259 -0.1137201 0.16848028 0.0049727075 -0.1288073
0.08507208 0.03132174 -0.15532087 0.05330226 0.080736436 0.06825533 0.04778515 -0.10302333
-0.12531392 0.06868397 -0.14531888 0.016270842 0.010929565 0.030681243 -0.13394567 -0.070810534
-0.15944894 0.02570444 -0.11833591 0.059634637 0.095915996 -0.118805975 0.058575768 -0.079126954
00000000: dadd 263d 39ea 3dbd 8391 08bd 44d9 0e3e
00000010: 6361 083d 21bb 9bbc b76d 5d3d a675 adbd
00000020: 5fee 653d 0806 1d3e 5814 26bc a345 9ebb
00000030: 6dfa 183e 5375 353e 9061 9e3d eb8d 043c
00000040: 8cd6 dbbd 55ff c13d f9c4 473c b97c dc3d
00000050: b55b c93d 3c22 23be 3be4 883d aa06 723d
00000060: 03b2 963d f47d c1bc a8d7 31bd 3cd4 e13c
00000070: 1d37 31bd 8988 6cbd 87c1 67bd d1f7 f03d
00000080: 1f73 703d f03e 5abd 0a3e d23d 2191 f13d
00000090: 15e6 e8bd 1886 2c3e 18f2 a23b 10e6 03be
000000a0: 453a ae3d 3a4b 003d 6f0c 1fbe 7853 5a3d
000000b0: 2559 a53d 73c9 8b3d 5dba 433d e5fd d2bd
000000c0: 4b52 00be 2eaa 8c3d 79ce 14be 6e4a 853c
000000d0: eb11 333c 3b57 fb3c 0e29 09be 1d05 91bd
000000e0: 9546 23be 1e92 d23c 195a f2bd 7343 743d
000000f0: 9b6f c43d 8c50 f3bd 25ed 6f3d 500d a2bd

Finedcontroller.fined_class.0.mlp.mlps.2.0.weight f4 [36, 64]
0.05005143 0.00037894782 0.109191634 0.09277104 -0.021167284 0.002549444 0.039122175 -0.031475894
-0.12323007 -0.05084791 0.088658184 -0.0037565301 0.070852496 -0.10361174 -0.120864816 0.11584556
0.08062091 -0.0366873 -0.07536286 0.07460971 0.05948762 -0.106296144 -0.08559143 -0.061922893
-0.0032191933 -0.08760753 0.01945246 0.10183241 0.03688792 -0.008600755 0.0023396132 -0.04082874
0.08660007 -0.017514 0.071638174 0.037115924 -0.0936749 -0.09102418 9.904309e-06 0.05905618
0.021953147 -0.070578374 -0.036443103 -0.050736323 0.018258752 -0.06415784 0.050650686 -0.01021192
0.026200444 -0.016485343 0.04320159 0.08212784 -0.10313663 -0.040087882 0.0193596 -0.09533304
0.030292155 0.052115653 -0.019967692 -0.06856147 0.030511426 0.0036478695 0.024601605 0.078409195
0.119554825 0.0028481444 -0.0544167 -0.03446777 0.114590965 -0.0029207633 -0.016183905 -0.11556504
-0.03436432 0.020883843 -0.02731395 -0.027234744 0.04179892 -0.009388969 0.008249302 0.057382826
-0.09267839 -0.08053006 0.07011659 0.0753186 0.09471233 0.015615164 -0.036361296 -0.037294336
0.028595468 0.08568932 0.09675968 -0.03191976 -0.063754305 -0.003657283 0.04537125 -0.07111841
0.036873866 -0.03077137 -0.04762151 -0.106763065 0.032999944 0.111931205 -0.0003529983 0.116498694
-0.046847917 0.0007334579 -0.046057954 0.0051772897 -0.025556648 -0.102363795 -0.07529137 -0.029649306
0.0865881 0.0015609486 -0.060444605 -0.09259578 -0.06367496 0.059810054 0.09805204 0.110989526
-0.09320027 -0.09115525 -0.013263774 0.10207491 0.019356936 0.08488251 -0.0060748216 -0.017069777
-0.08442838 0.00023530493 -0.023665607 0.07523063 0.09597794 -8.883373e-05 -0.040586345 -0.106827945
0.051472243 0.08238189 -0.013371722 0.011113545 0.041186288 -0.011080502 -0.044035874 -0.08393847
0.04389685 -0.08716726 -0.06254224 0.005131086 0.07862919 0.0019478002 0.053836532 0.014470219
-0.08869039 0.081222385 0.037287146 -0.083420135 0.07290737 -0.0071278308 -0.050199635 -0.027475711
-0.058808617 0.021673428 -0.09487526 -0.018556645 -0.070163675 0.03972163 0.0001245762 -0.031572748
0.013978533 -0.0070289304 0.0022127165 0.006916294 0.016558832 -0.009178027 -0.023295522 -0.05119229
-0.010447618 -0.04920928 -0.119907215 -0.09321518 0.012099515 0.028324863 0.016273133 -0.008478097
0.03924894 0.001440614 -0.035378564 -0.02906286 -0.0007065709 0.09697382 -0.06589123 0.043156788
-0.0110633 2.6326536e-05 0.07949225 0.103715196 0.040066727 0.00087971473 0.06974458 0.008825332
-0.08042763 0.093983844 0.022113832 0.0043086596 -0.107587576 -0.09648055 -0.10098547 -0.07064689
-0.09205132 0.08853875 0.08603278 -0.08475668 -0.043322373 0.08912569 0.04713048 -0.037233245
0.090563 -0.035194125 0.0779723 0.09829167 -0.07839721 -0.00078672334 0.026885169 0.040295694
-0.0406495 -0.0296073 -0.0823147 -0.04337558 -0.04890898 -0.018775864 4.0658085e-07 -0.12552631
0.0680748 -0.024923058 0.075960316 0.0009917902 -0.0145247085 -0.08150692 0.040099468 -0.013277477
0.049336147 0.01904779 0.04571987 0.03932438 -0.111800335 -0.02214653 0.016759587 0.0509123
-0.09865866 -0.0175967 -0.038495593 0.0085834 0.03640849 -0.11100501 -0.046965413 0.052886978
00000000: ba02 4d3d 84ad c639 dd9f df3d befe bd3d
00000010: 0367 adbc 9314 273b 933e 203d deec 00bd
00000020: 0c60 fcbd e645 50bd 6c92 b53d 1e30 76bb
00000030: 1d1b 913d 6432 d4bd f987 f7bd 7040 ed3d
00000040: 931c a53d 6c45 16bd d857 9abd facc 983d
00000050: 4aa9 733d cbb1 d9bd 8f4a afbd dca2 7dbd
00000060: 1af9 52bb 946b b3bd c45a 9f3c 838d d03d
00000070: ca17 173d 2eea 0cbc 3254 193b 093c 27bd
00000080: 615b b13d 8579 8fbc 09b7 923d de06 183d
00000090: a0d8 bfbd e36a babd af2a 2637 e5e4 713d
000000a0: 16d7 b33c 658b 90bd 5d45 15bd e4d0 4fbd
000000b0: 6193 953c 3065 83bd 1877 4f3d e64f 27bc
000000c0: 50a2 d63c 450c 87bc 27f4 303d a432 a83d
000000d0: 4c39 d3bd 3133 24bd 0698 9e3c f83d c3bd
000000e0: 4127 f83c 3977 553d 4993 a3bc f569 8cbd
000000f0: 19f3 f93c 1811 6f3b 4e89 c93c 0095 a03d
00000100: 29d9 f43d efa7 3a3b 0ce4 5ebd 142e 0dbd
00000110: abae ea3d 476a 3fbb 1c94 84bc 5dad ecbd
00000120: 9ac1 0cbd 9814 ab3c 81c1 dfbc 661b dfbc
00000130: 5835 2b3d 31d4 19bc 1528 073c 410a 6b3d
00000140: 2bce bdbd f2ec a4bd 4999 8f3d a340 9a3d
00000150: 8af8 c13d bfd6 7f3c 95ef 14bd f2c1 18bd
00000160: 0b41 ea3c e27d af3d f029 c63d 4bbe 02bd
00000170: 9e91 82bd 07af 6fbb 34d7 393d 87a6 91bd
00000180: 0d09 173d 3d14 fcbc c60e 43bd 98a6 dabd
00000190: f32a 073d 303c e53d a112 b9b9 de96 ee3d
000001a0: 9ae3 3fbd 8745 403a 44a7 3cbd 41a6 a93b
000001b0: 2d5c d1bc 1ca4 d1bd 5d32 9abd 1ae3 f2bc
000001c0: 1a55 b13d be98 cc3a c394 77bd dba2 bdbd
000001d0: 0468 82bd 63fb 743d 82cf c83d 7a4e e33d
000001e0: c8df bebd 9baf babd 4d50 59bc a70c d13d
000001f0: 7092 9e3c e2d6 ad3d 4c0f c7bb ebd5 8bbc
00000200: c9e8 acbd 30bc 7639 60de c1bc 8412 9a3d
00000210: 1590 c43d 3f4c bab8 de3d 26bd 9cc8 dabd
00000220: 8fd4 523d d6b7 a83d 1115 5bbc 9615 363c
00000230: f4b2 283d fe8a 35bc f65e 34bd efe7 abbd
00000240: 2fcd 333d c084 b2bd 2516 80bd ab22 a83b
00000250: 5708 a13d 544d ff3a b283 5c3d 7f14 6d3c
00000260: 4fa3 b5bd ec57 a63d 68ba 183d 2dd8 aabd
00000270: 7650 953d 9490 e9bb 229e 4dbd be14 e1bc
00000280: 4ee1 70bd 798c b13c f64d c2bd 1b04 98bc
00000290: f9b1 8fbd 26b3 223d aba0 0239 6d52 01bd
000002a0: 3806 653c f152 e6bb 3903 113b 14a2 e23b
000002b0: 63a6 873c 6f5f 16bc 40d6 bebc 02af 51bd
000002c0: 7c2c 2bbc ac8f 49bd ea91 f5bd 9ae7 bebd
000002d0: 0b3d 463c 8b09 e83c 3c4f 853c b7e7 0abc
000002e0: 7fc3 203d fcd2 bc3a 1de9 10bd 3c15 eebc
000002f0: 2c39 39ba 369a c63d fbf1 86bd 2cc5 303d
00000300: d842 35bc ced7 dc37 d5cc a23d a268 d43d
00000310: 021d 243d a89c 663a 3fd6 8e3d 2098 103c
00000320: 3eb7 a4bd 9a7a c03d 1128 b53c a82f 8d3b
00000330: e056 dcbd 9897 c5bd 78d1 cebd 51af 90bd
00000340: 6785 bcbd ce53 b53d f431 b03d e994 adbd
00000350: cd72 31bd 8887 b63d e40b 413d e381 18bd
00000360: 1879 b93d b727 10bd f1af 9f3d 254d c93d
00000370: b78e a0bd 1c3c 4eba 493e dc3c 190d 253d
00000380: 1780 26bd 028b f2bc 9c94 a8bd 98aa 31bd
00000390: c854 48bd d7cf 99bc 0c48 da34 f889 00be
000003a0: cd6a 8b3d 712b ccbc 1591 9b3d f5fe 813a
000003b0: 0bf9 6dbc 1aed a6bd 573f 243d c689 59bc
000003c0: b314 4a3d 1c0a 9c3c c244 3b3d 9a12 213d
000003d0: 93f7 e4bd a46c b5bc 674b 893c 6a89 503d
000003e0: 8d0d cabd f426 90bc 8ead 1dbd 64a1 0c3c
000003f0: 1221 153d 9856 e3bd ce5e 40bd 04a0 583d

Finedcontroller.fined_class.0.mlp.mlps.2.0.bias f4 [36]
-0.011537279 -0.02513526 0.041209072 -0.026204098 -0.09979535 -0.10538563 0.00432508 0.038290143
0.017393915 0.006979757 0.09407588 -0.037480988 0.016043374 -0.057657003 0.02723166 -0.038499575
-0.035057083 -0.0014536523 -0.0052399435 0.05675195 0.15787616 -0.023820993 -0.068828695 0.09299839
0.0832584 -0.0752441 0.10386791 0.022104016 -0.031750333 0.06415027 -0.012217647 -0.024146946
0.083516024 0.03629717 0.018052949 0.09020204
00000000: db06 3dbc 76e8 cdbc d8ca 283d faa9 d6bc
00000010: 8161 ccbd 6cd4 d7bd 67b9 8d3b 20d6 1c3d
00000020: af7d 8e3c 72b6 e43b dbaa c03d aa85 19bd
00000030: 656d 833c c029 6cbd ee14 df3c bbb1 1dbd
00000040: 0498 0fbd 7a88 beba d5b3 abbb bc74 683d
00000050: 4aaa 213e 3e24 c3bc 0ff6 8cbd f175 be3d
00000060: 6183 aa3d 9419 9abd b3b8 d43d 7b13 b53c
00000070: a30c 02bd 3761 833d 872c 48bc d1cf c5bc
00000080: 730a ab3d 57ac 143d c7e3 933c d9bb b83d

Finedcontroller.fined_class.1.mlp.mlps.0.0.weight f4 [50, 50]
0.04590408 0.027090771 0.05170454 0.037748713 0.004530854 0.039662104 0.0075893635 0.044754475
0.053522043 0.059682995 0.05411442 0.034132797 0.011143032 0.047121372 0.060968027 0.026920324
0.036783274 0.02408716 0.023888677 0.06400141 0.071628615 0.046314448 0.057803515 0.023587542
0.061393913 0.035007875 0.03832092 0.047311004 0.031813994 0.0153101655 0.061756246 0.04394984
0.030516598 0.04246997 0.08521693 0.056661088 0.05009591 0.04340821 0.06374426 -0.0131647065
0.022621876 0.053175528 0.04596601 0.04020228 0.04411773 0.063814156 0.05026673 0.02532998
0.03860758 0.039816566 -4.747196e-05 -1.0557423e-07 -1.026331e-06 -7.144533e-08 -1.3199708e-08 2.4034514e-05
-6.2007727e-10 -4.1289363e-07 -2.2841633e-10 -4.3610206e-07 -6.5513825e-07 -7.482093e-08 1.0741959e-06 2.380246e-05
-1.9201991e-07 -2.3833952e-07 3.9052143e-06 2.9178347e-05 -3.2729395e-07 -1.217782e-06 3.76267e-05 -1.4522476e-06
-3.7830807e-07 -1.0355353e-06 -4.925666e-07 2.1012988e-07 -5.3666736e-05 -7.1264715e-08 2.307283e-05 1.3520735e-05
-0.00014908545 -3.676515e-07 -0.00010483614 6.875738e-08 -7.8144876e-07 -1.3041168e-07 2.5010866e-06 -9.457314e-09
-3.7205973e-05 -3.2309885e-07 8.826967e-06 -1.3272656e-07 -0.00013082325 -6.533141e-07 4.3926507e-06 -2.1072057e-07
-3.428508e-07 -0.00013748022 -2.550865e-07 -2.2665118e-07 0.029566541 0.024967486 0.028616944 0.027024696
-0.0071733673 0.021996254 0.0029967637 0.025967715 0.037315357 0.03997181 0.033385478 0.021031793
0.010348513 0.033342272 0.04868056 0.016656313 0.027646527 0.014301681 0.025029786 0.03641686
0.048325323 0.028498853 0.04230389 0.013311678 0.040108714 0.023489445 0.027402943 0.031871084
0.018822769 0.013254584 0.04508107 0.03337969 0.017309144 0.029763503 0.061543234 0.04394888
0.04004155 0.02821147 0.045522787 -0.01395294 0.013668216 0.038852423 0.030217696 0.028741898
0.032386187 0.036249787 0.036359657 0.026889635 0.02639328 0.0322625 0.054737832 0.039602682
0.04609894 0.039862882 0.0065746093 0.036966152 0.009437871 0.052342154 0.053824686 0.06375665
0.055097353 0.034297805 0.0142291095 0.049372673 0.06287423 0.028417878 0.042456485 0.017175565
0.03755638 0.071455285 0.06675511 0.051472347 0.06202013 0.032442734 0.060897578 0.035096325
0.039058995 0.04854246 0.037611213 0.0225359 0.06922375 0.048812248 0.031956743 0.048978955
0.08446387 0.061623327 0.052471854 0.05246603 0.064392954 -0.0132395085 0.033064086 0.05252154
0.050577883 0.045009375 0.045645285 0.06563158 0.050951578 0.03614354 0.043896798 0.04044412
-9.957069e-06 -9.529653e-05 -5.5203927e-05 -6.169356e-07 3.9179517e-06 9.04144e-06 -7.8896075e-05 -0.00013624337
-0.00015438847 -4.250964e-05 -8.05358e-05 -4.8435086e-05 2.6442029e-05 -3.311406e-05 -1.965826e-05 -0.00010036157
-2.042169e-05 -0.000116141586 -7.911768e-05 4.3066848e-05 3.5281196e-06 -5.9487338e-05 -0.0001064516 -4.2669257e-05
-5.3569424e-06 -1.1994546e-05 -2.0395853e-05 6.827613e-05 -3.2113963e-05 2.1151245e-05 1.2948423e-06 -1.805209e-05
-7.2431553e-06 -2.3231583e-05 -7.047271e-06 -5.1271156e-05 1.0043384e-05 -2.1326928e-06 -6.9869784e-05 -1.8089315e-05
-1.7907558e-05 -9.8768905e-06 -4.4265917e-06 -9.199318e-06 5.288394e-06 -8.8611676e-05 -3.299974e-06 -1.8180945e-06
-4.2726783e-06 -2.397808e-06 0.055610564 0.034967754 0.055024944 0.04746162 0.010427909 0.04863127
00000000: eb05 3c3d 77ed dd3c 24c8 533d 659e 1a3d
00000010: 8f77 943b bb74 223d 32b0 f83b 7850 373d
00000020: ee39 5b3d 2876 743d 15a7 5d3d d5ce 0b3d
00000030: 4491 363c 5702 413d 9cb9 793d 0388 dc3c
00000040: 0faa 163d 7052 c53c 30b2 c33c 2c13 833d
00000050: 06b2 923d 38b4 3d3d 61c3 6c3d a93a c13c
00000060: 2f78 7b3d 6b64 0f3d 66f6 1c3d 2fc9 413d
00000070: 644f 023d 7dd7 7a3c 1ef4 7c3d bf04 343d
00000080: f2fd f93c fef4 2d3d 3786 ae3d 7515 683d
00000090: 5e31 4d3d cfcc 313d 5a8c 823d c8b0 57bc
000000a0: 8351 b93c 95ce 593d db46 3c3d 25ab 243d
000000b0: cbb4 343d ffb0 823d 7de4 4d3d d180 cf3c
000000c0: fb22 1e3d b216 233d a11c 47b8 0cb8 e2b3
000000d0: 77c0 89b5 7c6d 99b3 eec4 62b2 ba9d c937
000000e0: 0f72 2ab0 abab ddb4 7b25 7baf 6921 eab4
000000f0: c2dc 2fb5 3ead a0b3 172d 9035 65ab c737
00000100: 082e 4eb4 45ea 7fb4 8909 8336 06c4 f437
00000110: f0b6 afb4 ac72 a3b5 5dd1 1d38 d9ea c2b5
00000120: 441a cbb4 b9fc 8ab5 eb38 04b5 10a0 6134
00000130: 3818 61b8 310a 99b3 868c c137 1dd7 6237
00000140: d253 1cb9 a361 c5b4 79db dbb8 c5a7 9333
00000150: c0c4 51b5 4a07 0cb4 57d8 2736 b579 22b2
00000160: 9c0d 1cb8 5e76 adb4 8917 1437 9983 0eb4
00000170: 992d 09b9 675f 2fb5 9564 9336 6e42 62b4
00000180: 0e11 b8b4 9128 10b9 d2f2 88b4 675d 73b4
00000190: 8835 f23c 9d88 cc3c 156e ea3c e562 dd3c
000001a0: 910e ebbb 7d31 b43c 5a65 443b 3fba d43c
000001b0: fdd7 183d 7bb9 233d 36bf 083d de4a ac3c
000001c0: cf8c 293c e891 083d 4465 473d d272 883c
000001d0: f87a e23c 9951 6a3c 440b cd3c d829 153d
000001e0: c6f0 453d 6d76 e93c d846 2d3d 3919 5a3c
000001f0: 0949 243d f06c c03c 237c e03c 418b 023d
00000200: 3532 9a3c c129 593c eea6 383d 24b9 083d
00000210: e8cb 8d3c 97d2 f33c c214 7c3d be03 343d
00000220: 9c02 243d be1b e73c 1a76 3a3d df9a 64bc
00000230: a7f0 5f3c b823 1f3d 1a8b f73c 2174 eb3c
00000240: 61a7 043d a87a 143d dded 143d a747 dc3c
00000250: b836 d83c af25 043d c734 603d 6c36 223d
00000260: 3ed2 3c3d 4347 233d d26f d73b d269 173d
00000270: 4da1 1a3c ba64 563d 4677 5c3d d992 823d
00000280: c3ad 613d db7b 0c3d 3621 693c 003b 4a3d
00000290: 34c4 803d 9ccc e83c dae6 2d3d c5b3 8c3c
000002a0: b8d4 193d 2657 923d e7b6 883d abd4 523d
000002b0: d208 7e3d ace2 043d bd6f 793d 2ac1 0f3d
000002c0: 53fc 1f3d 75d4 463d 370e 1a3d 359d b83c
000002d0: 2ec5 8d3d 5aef 473d 13e5 023d 289e 483d
000002e0: 65fb ac3d be68 7c3d baec 563d 9fe6 563d
000002f0: 74e0 833d 86ea 58bc 356e 073d d420 573d
00000300: c12a 4f3d c05b 383d 8df6 3a3d da69 863d
00000310: 9ab2 503d 400b 143d 21cd 333d bca8 253d
00000320: 490d 27b7 efd9 c7b8 c48a 67b8 7e9b 25b5
00000330: f376 8336 b0b0 1737 0275 a5b8 8ddc 0eb9
00000340: 57e3 21b9 614c 32b8 54e5 a8b8 c726 4bb8
00000350: d3cf dd37 f4e3 0ab8 cbe7 a4b7 3579 d2b8
00000360: 3f4f abb7 0a91 f3b8 fbeb a5b8 ada2 3438
00000370: a2c4 6c36 0b82 79b8 c43e dfb8 c4f7 32b8
00000380: c9bf b3b6 2f3c 49b7 c317 abb7 782f 8f38
00000390: 1bb2 06b8 f46d b137 71ca ad35 916e 97b7
000003a0: 3b0a f3b6 72e1 c2b7 9977 ecb6 fc0b 57b8
000003b0: 0180 2837 621f 0fb6 0e87 92b8 82be 97b7
000003c0: 3038 96b7 ecb4 25b7 2288 94b6 c556 1ab7
000003d0: f572 b136 08d5 b9b8 1f75 5db6 4005 f4b5
000003e0: 075e 8fb6 07ea 20b6 e7c7 633d 593a 0f3d
000003f0: d661 613d 1e67 423d d2d9 2a3c 9531 473d

Finedcontroller.fined_class.1.mlp.mlps.0.0.bias f4 [50]
0.08886862 -1.939008e-05 0.053202868 0.09554723 -0.00026815562 0.12084459 0.10692579 0.12947856
0.11688177 -2.14081e-05 -6.047475e-05 0.10796054 0.10140867 0.13190663 0.11598413 -9.900432e-05
0.12831359 0.111625366 0.095562585 0.081935786 0.12150327 0.13208027 0.07533207 0.11208876
0.107232 -6.0404906e-05 -3.2171152e-05 0.116526574 -7.268724e-05 0.11014701 -9.4178e-05 0.12414982
0.034435708 0.101215966 0.13504532 -2.9570188e-05 0.10234229 0.112813376 0.11262385 0.040161185
-6.872945e-05 0.11691774 0.08531933 0.102520905 0.049172092 -0.00010962199 0.09173191 -0.00011977432
0.13070165 0.12888728
00000000: c000 b63d e1a7 a2b7 40eb 593d 44ae c33d
00000010: 3d97 8cb9 5e7d f73d e9fb da3d 0796 043e
00000020: b65f ef3d 8b95 b3b7 45a6 7db8 6a1a dd3d
00000030: 59af cf3d 8812 073e 1689 ed3d 8aa0 cfb8
00000040: a364 033e d79b e43d 51b6 c33d f3cd a73d
00000050: b5d6 f83d 0d40 073e b347 9a3d cb8e e53d
00000060: 739c db3d 465b 7db8 83ef 06b8 7ca5 ee3d
00000070: aa6f 98b8 c194 e13d 6e81 c5b8 4342 fe3d
00000080: 750c 0d3d 514a cf3d 5249 0a3e 7f0d f8b7
00000090: d698 d13d b30a e73d 55a7 e63d 0e80 243d
000000a0: d822 90b8 9172 ef3d e7bb ae3d 7bf6 d13d
000000b0: ad68 493d dce4 e5b8 f1dd bb3d 592f fbb8
000000c0: a7d6 053e 07fb 033e
